node {
  name: "input_1"
  op: "Placeholder"
  attr {
    key: "dtype"
    value {
      type: DT_FLOAT
    }
  }
  attr {
    key: "shape"
    value {
      shape {
        dim {
          size: 11
        }
        dim {
          size: 1250
        }
        dim {
          size: 1
        }
        dim {
          size: 1
        }
      }
    }
  }
}
node {
  name: "max_pooling2d/MaxPool"
  op: "MaxPool"
  input: "input_1"
  attr {
    key: "T"
    value {
      type: DT_FLOAT
    }
  }
  attr {
    key: "data_format"
    value {
      s: "NHWC"
    }
  }
  attr {
    key: "explicit_paddings"
    value {
      list {
      }
    }
  }
  attr {
    key: "ksize"
    value {
      list {
        i: 1
        i: 5
        i: 1
        i: 1
      }
    }
  }
  attr {
    key: "padding"
    value {
      s: "VALID"
    }
  }
  attr {
    key: "strides"
    value {
      list {
        i: 1
        i: 5
        i: 5
        i: 1
      }
    }
  }
}
node {
  name: "stream/kernel/Initializer/stateless_random_uniform/shape"
  op: "Const"
  attr {
    key: "_class"
    value {
      list {
        s: "loc:@stream/kernel"
      }
    }
  }
  attr {
    key: "dtype"
    value {
      type: DT_INT32
    }
  }
  attr {
    key: "value"
    value {
      tensor {
        dtype: DT_INT32
        tensor_shape {
          dim {
            size: 4
          }
        }
        tensor_content: "\006\000\000\000\001\000\000\000\001\000\000\000\003\000\000\000"
      }
    }
  }
}
node {
  name: "stream/kernel/Initializer/stateless_random_uniform/min"
  op: "Const"
  attr {
    key: "_class"
    value {
      list {
        s: "loc:@stream/kernel"
      }
    }
  }
  attr {
    key: "dtype"
    value {
      type: DT_FLOAT
    }
  }
  attr {
    key: "value"
    value {
      tensor {
        dtype: DT_FLOAT
        tensor_shape {
        }
        float_val: -0.5
      }
    }
  }
}
node {
  name: "stream/kernel/Initializer/stateless_random_uniform/max"
  op: "Const"
  attr {
    key: "_class"
    value {
      list {
        s: "loc:@stream/kernel"
      }
    }
  }
  attr {
    key: "dtype"
    value {
      type: DT_FLOAT
    }
  }
  attr {
    key: "value"
    value {
      tensor {
        dtype: DT_FLOAT
        tensor_shape {
        }
        float_val: 0.5
      }
    }
  }
}
node {
  name: "stream/kernel/Initializer/stateless_random_uniform/StatelessRandomGetKeyCounter/seed"
  op: "Const"
  attr {
    key: "_class"
    value {
      list {
        s: "loc:@stream/kernel"
      }
    }
  }
  attr {
    key: "dtype"
    value {
      type: DT_INT32
    }
  }
  attr {
    key: "value"
    value {
      tensor {
        dtype: DT_INT32
        tensor_shape {
          dim {
            size: 2
          }
        }
        tensor_content: "\232\242\0300\000\000\000\000"
      }
    }
  }
}
node {
  name: "stream/kernel/Initializer/stateless_random_uniform/StatelessRandomGetKeyCounter"
  op: "StatelessRandomGetKeyCounter"
  input: "stream/kernel/Initializer/stateless_random_uniform/StatelessRandomGetKeyCounter/seed"
  attr {
    key: "Tseed"
    value {
      type: DT_INT32
    }
  }
  attr {
    key: "_class"
    value {
      list {
        s: "loc:@stream/kernel"
      }
    }
  }
}
node {
  name: "stream/kernel/Initializer/stateless_random_uniform/StatelessRandomUniformV2/alg"
  op: "Const"
  attr {
    key: "_class"
    value {
      list {
        s: "loc:@stream/kernel"
      }
    }
  }
  attr {
    key: "dtype"
    value {
      type: DT_INT32
    }
  }
  attr {
    key: "value"
    value {
      tensor {
        dtype: DT_INT32
        tensor_shape {
        }
        int_val: 3
      }
    }
  }
}
node {
  name: "stream/kernel/Initializer/stateless_random_uniform/StatelessRandomUniformV2"
  op: "StatelessRandomUniformV2"
  input: "stream/kernel/Initializer/stateless_random_uniform/shape"
  input: "stream/kernel/Initializer/stateless_random_uniform/StatelessRandomGetKeyCounter"
  input: "stream/kernel/Initializer/stateless_random_uniform/StatelessRandomGetKeyCounter:1"
  input: "stream/kernel/Initializer/stateless_random_uniform/StatelessRandomUniformV2/alg"
  attr {
    key: "Tshape"
    value {
      type: DT_INT32
    }
  }
  attr {
    key: "_class"
    value {
      list {
        s: "loc:@stream/kernel"
      }
    }
  }
  attr {
    key: "dtype"
    value {
      type: DT_FLOAT
    }
  }
}
node {
  name: "stream/kernel/Initializer/stateless_random_uniform/sub"
  op: "Sub"
  input: "stream/kernel/Initializer/stateless_random_uniform/max"
  input: "stream/kernel/Initializer/stateless_random_uniform/min"
  attr {
    key: "T"
    value {
      type: DT_FLOAT
    }
  }
  attr {
    key: "_class"
    value {
      list {
        s: "loc:@stream/kernel"
      }
    }
  }
}
node {
  name: "stream/kernel/Initializer/stateless_random_uniform/mul"
  op: "Mul"
  input: "stream/kernel/Initializer/stateless_random_uniform/StatelessRandomUniformV2"
  input: "stream/kernel/Initializer/stateless_random_uniform/sub"
  attr {
    key: "T"
    value {
      type: DT_FLOAT
    }
  }
  attr {
    key: "_class"
    value {
      list {
        s: "loc:@stream/kernel"
      }
    }
  }
}
node {
  name: "stream/kernel/Initializer/stateless_random_uniform"
  op: "AddV2"
  input: "stream/kernel/Initializer/stateless_random_uniform/mul"
  input: "stream/kernel/Initializer/stateless_random_uniform/min"
  attr {
    key: "T"
    value {
      type: DT_FLOAT
    }
  }
  attr {
    key: "_class"
    value {
      list {
        s: "loc:@stream/kernel"
      }
    }
  }
}
node {
  name: "stream/kernel"
  op: "VarHandleOp"
  attr {
    key: "_class"
    value {
      list {
        s: "loc:@stream/kernel"
      }
    }
  }
  attr {
    key: "allowed_devices"
    value {
      list {
      }
    }
  }
  attr {
    key: "container"
    value {
      s: ""
    }
  }
  attr {
    key: "dtype"
    value {
      type: DT_FLOAT
    }
  }
  attr {
    key: "shape"
    value {
      shape {
        dim {
          size: 6
        }
        dim {
          size: 1
        }
        dim {
          size: 1
        }
        dim {
          size: 3
        }
      }
    }
  }
  attr {
    key: "shared_name"
    value {
      s: "stream/kernel"
    }
  }
}
node {
  name: "stream/kernel/IsInitialized/VarIsInitializedOp"
  op: "VarIsInitializedOp"
  input: "stream/kernel"
}
node {
  name: "stream/kernel/Assign"
  op: "AssignVariableOp"
  input: "stream/kernel"
  input: "stream/kernel/Initializer/stateless_random_uniform"
  attr {
    key: "dtype"
    value {
      type: DT_FLOAT
    }
  }
  attr {
    key: "validate_shape"
    value {
      b: false
    }
  }
}
node {
  name: "stream/kernel/Read/ReadVariableOp"
  op: "ReadVariableOp"
  input: "stream/kernel"
  attr {
    key: "dtype"
    value {
      type: DT_FLOAT
    }
  }
}
node {
  name: "stream/bias/Initializer/zeros"
  op: "Const"
  attr {
    key: "_class"
    value {
      list {
        s: "loc:@stream/bias"
      }
    }
  }
  attr {
    key: "dtype"
    value {
      type: DT_FLOAT
    }
  }
  attr {
    key: "value"
    value {
      tensor {
        dtype: DT_FLOAT
        tensor_shape {
          dim {
            size: 3
          }
        }
        float_val: 0.0
      }
    }
  }
}
node {
  name: "stream/bias"
  op: "VarHandleOp"
  attr {
    key: "_class"
    value {
      list {
        s: "loc:@stream/bias"
      }
    }
  }
  attr {
    key: "allowed_devices"
    value {
      list {
      }
    }
  }
  attr {
    key: "container"
    value {
      s: ""
    }
  }
  attr {
    key: "dtype"
    value {
      type: DT_FLOAT
    }
  }
  attr {
    key: "shape"
    value {
      shape {
        dim {
          size: 3
        }
      }
    }
  }
  attr {
    key: "shared_name"
    value {
      s: "stream/bias"
    }
  }
}
node {
  name: "stream/bias/IsInitialized/VarIsInitializedOp"
  op: "VarIsInitializedOp"
  input: "stream/bias"
}
node {
  name: "stream/bias/Assign"
  op: "AssignVariableOp"
  input: "stream/bias"
  input: "stream/bias/Initializer/zeros"
  attr {
    key: "dtype"
    value {
      type: DT_FLOAT
    }
  }
  attr {
    key: "validate_shape"
    value {
      b: false
    }
  }
}
node {
  name: "stream/bias/Read/ReadVariableOp"
  op: "ReadVariableOp"
  input: "stream/bias"
  attr {
    key: "dtype"
    value {
      type: DT_FLOAT
    }
  }
}
node {
  name: "stream/conv2d/Conv2D/ReadVariableOp"
  op: "ReadVariableOp"
  input: "stream/kernel"
  attr {
    key: "dtype"
    value {
      type: DT_FLOAT
    }
  }
}
node {
  name: "stream/conv2d/Conv2D"
  op: "Conv2D"
  input: "max_pooling2d/MaxPool"
  input: "stream/conv2d/Conv2D/ReadVariableOp"
  attr {
    key: "T"
    value {
      type: DT_FLOAT
    }
  }
  attr {
    key: "data_format"
    value {
      s: "NHWC"
    }
  }
  attr {
    key: "dilations"
    value {
      list {
        i: 1
        i: 1
        i: 1
        i: 1
      }
    }
  }
  attr {
    key: "explicit_paddings"
    value {
      list {
      }
    }
  }
  attr {
    key: "padding"
    value {
      s: "VALID"
    }
  }
  attr {
    key: "strides"
    value {
      list {
        i: 1
        i: 2
        i: 2
        i: 1
      }
    }
  }
  attr {
    key: "use_cudnn_on_gpu"
    value {
      b: true
    }
  }
}
node {
  name: "stream/conv2d/BiasAdd/ReadVariableOp"
  op: "ReadVariableOp"
  input: "stream/bias"
  attr {
    key: "dtype"
    value {
      type: DT_FLOAT
    }
  }
}
node {
  name: "stream/conv2d/BiasAdd"
  op: "BiasAdd"
  input: "stream/conv2d/Conv2D"
  input: "stream/conv2d/BiasAdd/ReadVariableOp"
  attr {
    key: "T"
    value {
      type: DT_FLOAT
    }
  }
  attr {
    key: "data_format"
    value {
      s: "NHWC"
    }
  }
}
node {
  name: "batch_normalization/gamma/Initializer/ones"
  op: "Const"
  attr {
    key: "_class"
    value {
      list {
        s: "loc:@batch_normalization/gamma"
      }
    }
  }
  attr {
    key: "dtype"
    value {
      type: DT_FLOAT
    }
  }
  attr {
    key: "value"
    value {
      tensor {
        dtype: DT_FLOAT
        tensor_shape {
          dim {
            size: 3
          }
        }
        float_val: 1.0
      }
    }
  }
}
node {
  name: "batch_normalization/gamma"
  op: "VarHandleOp"
  attr {
    key: "_class"
    value {
      list {
        s: "loc:@batch_normalization/gamma"
      }
    }
  }
  attr {
    key: "allowed_devices"
    value {
      list {
      }
    }
  }
  attr {
    key: "container"
    value {
      s: ""
    }
  }
  attr {
    key: "dtype"
    value {
      type: DT_FLOAT
    }
  }
  attr {
    key: "shape"
    value {
      shape {
        dim {
          size: 3
        }
      }
    }
  }
  attr {
    key: "shared_name"
    value {
      s: "batch_normalization/gamma"
    }
  }
}
node {
  name: "batch_normalization/gamma/IsInitialized/VarIsInitializedOp"
  op: "VarIsInitializedOp"
  input: "batch_normalization/gamma"
}
node {
  name: "batch_normalization/gamma/Assign"
  op: "AssignVariableOp"
  input: "batch_normalization/gamma"
  input: "batch_normalization/gamma/Initializer/ones"
  attr {
    key: "dtype"
    value {
      type: DT_FLOAT
    }
  }
  attr {
    key: "validate_shape"
    value {
      b: false
    }
  }
}
node {
  name: "batch_normalization/gamma/Read/ReadVariableOp"
  op: "ReadVariableOp"
  input: "batch_normalization/gamma"
  attr {
    key: "dtype"
    value {
      type: DT_FLOAT
    }
  }
}
node {
  name: "batch_normalization/beta/Initializer/zeros"
  op: "Const"
  attr {
    key: "_class"
    value {
      list {
        s: "loc:@batch_normalization/beta"
      }
    }
  }
  attr {
    key: "dtype"
    value {
      type: DT_FLOAT
    }
  }
  attr {
    key: "value"
    value {
      tensor {
        dtype: DT_FLOAT
        tensor_shape {
          dim {
            size: 3
          }
        }
        float_val: 0.0
      }
    }
  }
}
node {
  name: "batch_normalization/beta"
  op: "VarHandleOp"
  attr {
    key: "_class"
    value {
      list {
        s: "loc:@batch_normalization/beta"
      }
    }
  }
  attr {
    key: "allowed_devices"
    value {
      list {
      }
    }
  }
  attr {
    key: "container"
    value {
      s: ""
    }
  }
  attr {
    key: "dtype"
    value {
      type: DT_FLOAT
    }
  }
  attr {
    key: "shape"
    value {
      shape {
        dim {
          size: 3
        }
      }
    }
  }
  attr {
    key: "shared_name"
    value {
      s: "batch_normalization/beta"
    }
  }
}
node {
  name: "batch_normalization/beta/IsInitialized/VarIsInitializedOp"
  op: "VarIsInitializedOp"
  input: "batch_normalization/beta"
}
node {
  name: "batch_normalization/beta/Assign"
  op: "AssignVariableOp"
  input: "batch_normalization/beta"
  input: "batch_normalization/beta/Initializer/zeros"
  attr {
    key: "dtype"
    value {
      type: DT_FLOAT
    }
  }
  attr {
    key: "validate_shape"
    value {
      b: false
    }
  }
}
node {
  name: "batch_normalization/beta/Read/ReadVariableOp"
  op: "ReadVariableOp"
  input: "batch_normalization/beta"
  attr {
    key: "dtype"
    value {
      type: DT_FLOAT
    }
  }
}
node {
  name: "batch_normalization/moving_mean/Initializer/zeros"
  op: "Const"
  attr {
    key: "_class"
    value {
      list {
        s: "loc:@batch_normalization/moving_mean"
      }
    }
  }
  attr {
    key: "dtype"
    value {
      type: DT_FLOAT
    }
  }
  attr {
    key: "value"
    value {
      tensor {
        dtype: DT_FLOAT
        tensor_shape {
          dim {
            size: 3
          }
        }
        float_val: 0.0
      }
    }
  }
}
node {
  name: "batch_normalization/moving_mean"
  op: "VarHandleOp"
  attr {
    key: "_class"
    value {
      list {
        s: "loc:@batch_normalization/moving_mean"
      }
    }
  }
  attr {
    key: "allowed_devices"
    value {
      list {
      }
    }
  }
  attr {
    key: "container"
    value {
      s: ""
    }
  }
  attr {
    key: "dtype"
    value {
      type: DT_FLOAT
    }
  }
  attr {
    key: "shape"
    value {
      shape {
        dim {
          size: 3
        }
      }
    }
  }
  attr {
    key: "shared_name"
    value {
      s: "batch_normalization/moving_mean"
    }
  }
}
node {
  name: "batch_normalization/moving_mean/IsInitialized/VarIsInitializedOp"
  op: "VarIsInitializedOp"
  input: "batch_normalization/moving_mean"
}
node {
  name: "batch_normalization/moving_mean/Assign"
  op: "AssignVariableOp"
  input: "batch_normalization/moving_mean"
  input: "batch_normalization/moving_mean/Initializer/zeros"
  attr {
    key: "dtype"
    value {
      type: DT_FLOAT
    }
  }
  attr {
    key: "validate_shape"
    value {
      b: false
    }
  }
}
node {
  name: "batch_normalization/moving_mean/Read/ReadVariableOp"
  op: "ReadVariableOp"
  input: "batch_normalization/moving_mean"
  attr {
    key: "dtype"
    value {
      type: DT_FLOAT
    }
  }
}
node {
  name: "batch_normalization/moving_variance/Initializer/ones"
  op: "Const"
  attr {
    key: "_class"
    value {
      list {
        s: "loc:@batch_normalization/moving_variance"
      }
    }
  }
  attr {
    key: "dtype"
    value {
      type: DT_FLOAT
    }
  }
  attr {
    key: "value"
    value {
      tensor {
        dtype: DT_FLOAT
        tensor_shape {
          dim {
            size: 3
          }
        }
        float_val: 1.0
      }
    }
  }
}
node {
  name: "batch_normalization/moving_variance"
  op: "VarHandleOp"
  attr {
    key: "_class"
    value {
      list {
        s: "loc:@batch_normalization/moving_variance"
      }
    }
  }
  attr {
    key: "allowed_devices"
    value {
      list {
      }
    }
  }
  attr {
    key: "container"
    value {
      s: ""
    }
  }
  attr {
    key: "dtype"
    value {
      type: DT_FLOAT
    }
  }
  attr {
    key: "shape"
    value {
      shape {
        dim {
          size: 3
        }
      }
    }
  }
  attr {
    key: "shared_name"
    value {
      s: "batch_normalization/moving_variance"
    }
  }
}
node {
  name: "batch_normalization/moving_variance/IsInitialized/VarIsInitializedOp"
  op: "VarIsInitializedOp"
  input: "batch_normalization/moving_variance"
}
node {
  name: "batch_normalization/moving_variance/Assign"
  op: "AssignVariableOp"
  input: "batch_normalization/moving_variance"
  input: "batch_normalization/moving_variance/Initializer/ones"
  attr {
    key: "dtype"
    value {
      type: DT_FLOAT
    }
  }
  attr {
    key: "validate_shape"
    value {
      b: false
    }
  }
}
node {
  name: "batch_normalization/moving_variance/Read/ReadVariableOp"
  op: "ReadVariableOp"
  input: "batch_normalization/moving_variance"
  attr {
    key: "dtype"
    value {
      type: DT_FLOAT
    }
  }
}
node {
  name: "keras_learning_phase/input"
  op: "Const"
  attr {
    key: "dtype"
    value {
      type: DT_BOOL
    }
  }
  attr {
    key: "value"
    value {
      tensor {
        dtype: DT_BOOL
        tensor_shape {
        }
        bool_val: false
      }
    }
  }
}
node {
  name: "keras_learning_phase"
  op: "PlaceholderWithDefault"
  input: "keras_learning_phase/input"
  attr {
    key: "dtype"
    value {
      type: DT_BOOL
    }
  }
  attr {
    key: "shape"
    value {
      shape {
      }
    }
  }
}
node {
  name: "batch_normalization/cond"
  op: "If"
  input: "keras_learning_phase"
  input: "batch_normalization/gamma"
  input: "batch_normalization/beta"
  input: "batch_normalization/moving_mean"
  input: "batch_normalization/moving_variance"
  input: "stream/conv2d/BiasAdd"
  attr {
    key: "Tcond"
    value {
      type: DT_BOOL
    }
  }
  attr {
    key: "Tin"
    value {
      list {
        type: DT_RESOURCE
        type: DT_RESOURCE
        type: DT_RESOURCE
        type: DT_RESOURCE
        type: DT_FLOAT
      }
    }
  }
  attr {
    key: "Tout"
    value {
      list {
        type: DT_FLOAT
        type: DT_FLOAT
        type: DT_FLOAT
        type: DT_VARIANT
        type: DT_VARIANT
        type: DT_VARIANT
        type: DT_VARIANT
        type: DT_VARIANT
        type: DT_VARIANT
        type: DT_VARIANT
      }
    }
  }
  attr {
    key: "_lower_using_switch_merge"
    value {
      b: true
    }
  }
  attr {
    key: "_read_only_resource_inputs"
    value {
      list {
        i: 1
        i: 2
        i: 3
        i: 4
      }
    }
  }
  attr {
    key: "else_branch"
    value {
      func {
        name: "batch_normalization_cond_false_44"
      }
    }
  }
  attr {
    key: "output_shapes"
    value {
      list {
        shape {
          dim {
            size: 11
          }
          dim {
            size: 123
          }
          dim {
            size: 1
          }
          dim {
            size: 3
          }
        }
        shape {
          dim {
            size: 3
          }
        }
        shape {
          dim {
            size: 3
          }
        }
        shape {
        }
        shape {
        }
        shape {
        }
        shape {
        }
        shape {
        }
        shape {
        }
        shape {
        }
      }
    }
  }
  attr {
    key: "then_branch"
    value {
      func {
        name: "batch_normalization_cond_true_43"
      }
    }
  }
}
node {
  name: "batch_normalization/cond/Identity"
  op: "Identity"
  input: "batch_normalization/cond"
  attr {
    key: "T"
    value {
      type: DT_FLOAT
    }
  }
}
node {
  name: "batch_normalization/cond/Identity_1"
  op: "Identity"
  input: "batch_normalization/cond:1"
  attr {
    key: "T"
    value {
      type: DT_FLOAT
    }
  }
}
node {
  name: "batch_normalization/cond/Identity_2"
  op: "Identity"
  input: "batch_normalization/cond:2"
  attr {
    key: "T"
    value {
      type: DT_FLOAT
    }
  }
}
node {
  name: "batch_normalization/cond/Identity_3"
  op: "Identity"
  input: "batch_normalization/cond:3"
  attr {
    key: "T"
    value {
      type: DT_VARIANT
    }
  }
}
node {
  name: "batch_normalization/cond/Identity_4"
  op: "Identity"
  input: "batch_normalization/cond:4"
  attr {
    key: "T"
    value {
      type: DT_VARIANT
    }
  }
}
node {
  name: "batch_normalization/cond/Identity_5"
  op: "Identity"
  input: "batch_normalization/cond:5"
  attr {
    key: "T"
    value {
      type: DT_VARIANT
    }
  }
}
node {
  name: "batch_normalization/cond/Identity_6"
  op: "Identity"
  input: "batch_normalization/cond:6"
  attr {
    key: "T"
    value {
      type: DT_VARIANT
    }
  }
}
node {
  name: "batch_normalization/cond/Identity_7"
  op: "Identity"
  input: "batch_normalization/cond:7"
  attr {
    key: "T"
    value {
      type: DT_VARIANT
    }
  }
}
node {
  name: "batch_normalization/cond/Identity_8"
  op: "Identity"
  input: "batch_normalization/cond:8"
  attr {
    key: "T"
    value {
      type: DT_VARIANT
    }
  }
}
node {
  name: "batch_normalization/cond/Identity_9"
  op: "Identity"
  input: "batch_normalization/cond:9"
  attr {
    key: "T"
    value {
      type: DT_VARIANT
    }
  }
}
node {
  name: "batch_normalization/cond_1"
  op: "StatelessIf"
  input: "keras_learning_phase"
  attr {
    key: "Tcond"
    value {
      type: DT_BOOL
    }
  }
  attr {
    key: "Tin"
    value {
      list {
      }
    }
  }
  attr {
    key: "Tout"
    value {
      list {
        type: DT_FLOAT
      }
    }
  }
  attr {
    key: "_lower_using_switch_merge"
    value {
      b: true
    }
  }
  attr {
    key: "_read_only_resource_inputs"
    value {
      list {
      }
    }
  }
  attr {
    key: "else_branch"
    value {
      func {
        name: "batch_normalization_cond_1_false_112"
      }
    }
  }
  attr {
    key: "output_shapes"
    value {
      list {
        shape {
        }
      }
    }
  }
  attr {
    key: "then_branch"
    value {
      func {
        name: "batch_normalization_cond_1_true_111"
      }
    }
  }
}
node {
  name: "batch_normalization/cond_1/Identity"
  op: "Identity"
  input: "batch_normalization/cond_1"
  attr {
    key: "T"
    value {
      type: DT_FLOAT
    }
  }
}
node {
  name: "batch_normalization/AssignMovingAvg/sub/x"
  op: "Const"
  attr {
    key: "_class"
    value {
      list {
        s: "loc:@batch_normalization/moving_mean"
      }
    }
  }
  attr {
    key: "dtype"
    value {
      type: DT_FLOAT
    }
  }
  attr {
    key: "value"
    value {
      tensor {
        dtype: DT_FLOAT
        tensor_shape {
        }
        float_val: 1.0
      }
    }
  }
}
node {
  name: "batch_normalization/AssignMovingAvg/sub"
  op: "Sub"
  input: "batch_normalization/AssignMovingAvg/sub/x"
  input: "batch_normalization/cond_1/Identity"
  attr {
    key: "T"
    value {
      type: DT_FLOAT
    }
  }
  attr {
    key: "_class"
    value {
      list {
        s: "loc:@batch_normalization/moving_mean"
      }
    }
  }
}
node {
  name: "batch_normalization/AssignMovingAvg/ReadVariableOp"
  op: "ReadVariableOp"
  input: "batch_normalization/moving_mean"
  attr {
    key: "dtype"
    value {
      type: DT_FLOAT
    }
  }
}
node {
  name: "batch_normalization/AssignMovingAvg/sub_1"
  op: "Sub"
  input: "batch_normalization/AssignMovingAvg/ReadVariableOp"
  input: "batch_normalization/cond/Identity_1"
  attr {
    key: "T"
    value {
      type: DT_FLOAT
    }
  }
  attr {
    key: "_class"
    value {
      list {
        s: "loc:@batch_normalization/moving_mean"
      }
    }
  }
}
node {
  name: "batch_normalization/AssignMovingAvg/mul"
  op: "Mul"
  input: "batch_normalization/AssignMovingAvg/sub_1"
  input: "batch_normalization/AssignMovingAvg/sub"
  attr {
    key: "T"
    value {
      type: DT_FLOAT
    }
  }
  attr {
    key: "_class"
    value {
      list {
        s: "loc:@batch_normalization/moving_mean"
      }
    }
  }
}
node {
  name: "batch_normalization/AssignMovingAvg/AssignSubVariableOp"
  op: "AssignSubVariableOp"
  input: "batch_normalization/moving_mean"
  input: "batch_normalization/AssignMovingAvg/mul"
  attr {
    key: "_class"
    value {
      list {
        s: "loc:@batch_normalization/moving_mean"
      }
    }
  }
  attr {
    key: "_has_manual_control_dependencies"
    value {
      b: true
    }
  }
  attr {
    key: "dtype"
    value {
      type: DT_FLOAT
    }
  }
}
node {
  name: "batch_normalization/AssignMovingAvg/ReadVariableOp_1"
  op: "ReadVariableOp"
  input: "batch_normalization/moving_mean"
  input: "^batch_normalization/AssignMovingAvg/AssignSubVariableOp"
  attr {
    key: "_class"
    value {
      list {
        s: "loc:@batch_normalization/moving_mean"
      }
    }
  }
  attr {
    key: "dtype"
    value {
      type: DT_FLOAT
    }
  }
}
node {
  name: "batch_normalization/AssignMovingAvg_1/sub/x"
  op: "Const"
  attr {
    key: "_class"
    value {
      list {
        s: "loc:@batch_normalization/moving_variance"
      }
    }
  }
  attr {
    key: "dtype"
    value {
      type: DT_FLOAT
    }
  }
  attr {
    key: "value"
    value {
      tensor {
        dtype: DT_FLOAT
        tensor_shape {
        }
        float_val: 1.0
      }
    }
  }
}
node {
  name: "batch_normalization/AssignMovingAvg_1/sub"
  op: "Sub"
  input: "batch_normalization/AssignMovingAvg_1/sub/x"
  input: "batch_normalization/cond_1/Identity"
  attr {
    key: "T"
    value {
      type: DT_FLOAT
    }
  }
  attr {
    key: "_class"
    value {
      list {
        s: "loc:@batch_normalization/moving_variance"
      }
    }
  }
}
node {
  name: "batch_normalization/AssignMovingAvg_1/ReadVariableOp"
  op: "ReadVariableOp"
  input: "batch_normalization/moving_variance"
  attr {
    key: "dtype"
    value {
      type: DT_FLOAT
    }
  }
}
node {
  name: "batch_normalization/AssignMovingAvg_1/sub_1"
  op: "Sub"
  input: "batch_normalization/AssignMovingAvg_1/ReadVariableOp"
  input: "batch_normalization/cond/Identity_2"
  attr {
    key: "T"
    value {
      type: DT_FLOAT
    }
  }
  attr {
    key: "_class"
    value {
      list {
        s: "loc:@batch_normalization/moving_variance"
      }
    }
  }
}
node {
  name: "batch_normalization/AssignMovingAvg_1/mul"
  op: "Mul"
  input: "batch_normalization/AssignMovingAvg_1/sub_1"
  input: "batch_normalization/AssignMovingAvg_1/sub"
  attr {
    key: "T"
    value {
      type: DT_FLOAT
    }
  }
  attr {
    key: "_class"
    value {
      list {
        s: "loc:@batch_normalization/moving_variance"
      }
    }
  }
}
node {
  name: "batch_normalization/AssignMovingAvg_1/AssignSubVariableOp"
  op: "AssignSubVariableOp"
  input: "batch_normalization/moving_variance"
  input: "batch_normalization/AssignMovingAvg_1/mul"
  attr {
    key: "_class"
    value {
      list {
        s: "loc:@batch_normalization/moving_variance"
      }
    }
  }
  attr {
    key: "_has_manual_control_dependencies"
    value {
      b: true
    }
  }
  attr {
    key: "dtype"
    value {
      type: DT_FLOAT
    }
  }
}
node {
  name: "batch_normalization/AssignMovingAvg_1/ReadVariableOp_1"
  op: "ReadVariableOp"
  input: "batch_normalization/moving_variance"
  input: "^batch_normalization/AssignMovingAvg_1/AssignSubVariableOp"
  attr {
    key: "_class"
    value {
      list {
        s: "loc:@batch_normalization/moving_variance"
      }
    }
  }
  attr {
    key: "dtype"
    value {
      type: DT_FLOAT
    }
  }
}
node {
  name: "activation/Relu"
  op: "Relu"
  input: "batch_normalization/cond/Identity"
  attr {
    key: "T"
    value {
      type: DT_FLOAT
    }
  }
}
node {
  name: "stream_1/depthwise_kernel/Initializer/stateless_random_uniform/shape"
  op: "Const"
  attr {
    key: "_class"
    value {
      list {
        s: "loc:@stream_1/depthwise_kernel"
      }
    }
  }
  attr {
    key: "dtype"
    value {
      type: DT_INT32
    }
  }
  attr {
    key: "value"
    value {
      tensor {
        dtype: DT_INT32
        tensor_shape {
          dim {
            size: 4
          }
        }
        tensor_content: "\005\000\000\000\001\000\000\000\003\000\000\000\001\000\000\000"
      }
    }
  }
}
node {
  name: "stream_1/depthwise_kernel/Initializer/stateless_random_uniform/min"
  op: "Const"
  attr {
    key: "_class"
    value {
      list {
        s: "loc:@stream_1/depthwise_kernel"
      }
    }
  }
  attr {
    key: "dtype"
    value {
      type: DT_FLOAT
    }
  }
  attr {
    key: "value"
    value {
      tensor {
        dtype: DT_FLOAT
        tensor_shape {
        }
        float_val: -0.547722578048706
      }
    }
  }
}
node {
  name: "stream_1/depthwise_kernel/Initializer/stateless_random_uniform/max"
  op: "Const"
  attr {
    key: "_class"
    value {
      list {
        s: "loc:@stream_1/depthwise_kernel"
      }
    }
  }
  attr {
    key: "dtype"
    value {
      type: DT_FLOAT
    }
  }
  attr {
    key: "value"
    value {
      tensor {
        dtype: DT_FLOAT
        tensor_shape {
        }
        float_val: 0.547722578048706
      }
    }
  }
}
node {
  name: "stream_1/depthwise_kernel/Initializer/stateless_random_uniform/StatelessRandomGetKeyCounter/seed"
  op: "Const"
  attr {
    key: "_class"
    value {
      list {
        s: "loc:@stream_1/depthwise_kernel"
      }
    }
  }
  attr {
    key: "dtype"
    value {
      type: DT_INT32
    }
  }
  attr {
    key: "value"
    value {
      tensor {
        dtype: DT_INT32
        tensor_shape {
          dim {
            size: 2
          }
        }
        tensor_content: "P\253\\\001\000\000\000\000"
      }
    }
  }
}
node {
  name: "stream_1/depthwise_kernel/Initializer/stateless_random_uniform/StatelessRandomGetKeyCounter"
  op: "StatelessRandomGetKeyCounter"
  input: "stream_1/depthwise_kernel/Initializer/stateless_random_uniform/StatelessRandomGetKeyCounter/seed"
  attr {
    key: "Tseed"
    value {
      type: DT_INT32
    }
  }
  attr {
    key: "_class"
    value {
      list {
        s: "loc:@stream_1/depthwise_kernel"
      }
    }
  }
}
node {
  name: "stream_1/depthwise_kernel/Initializer/stateless_random_uniform/StatelessRandomUniformV2/alg"
  op: "Const"
  attr {
    key: "_class"
    value {
      list {
        s: "loc:@stream_1/depthwise_kernel"
      }
    }
  }
  attr {
    key: "dtype"
    value {
      type: DT_INT32
    }
  }
  attr {
    key: "value"
    value {
      tensor {
        dtype: DT_INT32
        tensor_shape {
        }
        int_val: 3
      }
    }
  }
}
node {
  name: "stream_1/depthwise_kernel/Initializer/stateless_random_uniform/StatelessRandomUniformV2"
  op: "StatelessRandomUniformV2"
  input: "stream_1/depthwise_kernel/Initializer/stateless_random_uniform/shape"
  input: "stream_1/depthwise_kernel/Initializer/stateless_random_uniform/StatelessRandomGetKeyCounter"
  input: "stream_1/depthwise_kernel/Initializer/stateless_random_uniform/StatelessRandomGetKeyCounter:1"
  input: "stream_1/depthwise_kernel/Initializer/stateless_random_uniform/StatelessRandomUniformV2/alg"
  attr {
    key: "Tshape"
    value {
      type: DT_INT32
    }
  }
  attr {
    key: "_class"
    value {
      list {
        s: "loc:@stream_1/depthwise_kernel"
      }
    }
  }
  attr {
    key: "dtype"
    value {
      type: DT_FLOAT
    }
  }
}
node {
  name: "stream_1/depthwise_kernel/Initializer/stateless_random_uniform/sub"
  op: "Sub"
  input: "stream_1/depthwise_kernel/Initializer/stateless_random_uniform/max"
  input: "stream_1/depthwise_kernel/Initializer/stateless_random_uniform/min"
  attr {
    key: "T"
    value {
      type: DT_FLOAT
    }
  }
  attr {
    key: "_class"
    value {
      list {
        s: "loc:@stream_1/depthwise_kernel"
      }
    }
  }
}
node {
  name: "stream_1/depthwise_kernel/Initializer/stateless_random_uniform/mul"
  op: "Mul"
  input: "stream_1/depthwise_kernel/Initializer/stateless_random_uniform/StatelessRandomUniformV2"
  input: "stream_1/depthwise_kernel/Initializer/stateless_random_uniform/sub"
  attr {
    key: "T"
    value {
      type: DT_FLOAT
    }
  }
  attr {
    key: "_class"
    value {
      list {
        s: "loc:@stream_1/depthwise_kernel"
      }
    }
  }
}
node {
  name: "stream_1/depthwise_kernel/Initializer/stateless_random_uniform"
  op: "AddV2"
  input: "stream_1/depthwise_kernel/Initializer/stateless_random_uniform/mul"
  input: "stream_1/depthwise_kernel/Initializer/stateless_random_uniform/min"
  attr {
    key: "T"
    value {
      type: DT_FLOAT
    }
  }
  attr {
    key: "_class"
    value {
      list {
        s: "loc:@stream_1/depthwise_kernel"
      }
    }
  }
}
node {
  name: "stream_1/depthwise_kernel"
  op: "VarHandleOp"
  attr {
    key: "_class"
    value {
      list {
        s: "loc:@stream_1/depthwise_kernel"
      }
    }
  }
  attr {
    key: "allowed_devices"
    value {
      list {
      }
    }
  }
  attr {
    key: "container"
    value {
      s: ""
    }
  }
  attr {
    key: "dtype"
    value {
      type: DT_FLOAT
    }
  }
  attr {
    key: "shape"
    value {
      shape {
        dim {
          size: 5
        }
        dim {
          size: 1
        }
        dim {
          size: 3
        }
        dim {
          size: 1
        }
      }
    }
  }
  attr {
    key: "shared_name"
    value {
      s: "stream_1/depthwise_kernel"
    }
  }
}
node {
  name: "stream_1/depthwise_kernel/IsInitialized/VarIsInitializedOp"
  op: "VarIsInitializedOp"
  input: "stream_1/depthwise_kernel"
}
node {
  name: "stream_1/depthwise_kernel/Assign"
  op: "AssignVariableOp"
  input: "stream_1/depthwise_kernel"
  input: "stream_1/depthwise_kernel/Initializer/stateless_random_uniform"
  attr {
    key: "dtype"
    value {
      type: DT_FLOAT
    }
  }
  attr {
    key: "validate_shape"
    value {
      b: false
    }
  }
}
node {
  name: "stream_1/depthwise_kernel/Read/ReadVariableOp"
  op: "ReadVariableOp"
  input: "stream_1/depthwise_kernel"
  attr {
    key: "dtype"
    value {
      type: DT_FLOAT
    }
  }
}
node {
  name: "stream_1/bias/Initializer/zeros"
  op: "Const"
  attr {
    key: "_class"
    value {
      list {
        s: "loc:@stream_1/bias"
      }
    }
  }
  attr {
    key: "dtype"
    value {
      type: DT_FLOAT
    }
  }
  attr {
    key: "value"
    value {
      tensor {
        dtype: DT_FLOAT
        tensor_shape {
          dim {
            size: 3
          }
        }
        float_val: 0.0
      }
    }
  }
}
node {
  name: "stream_1/bias"
  op: "VarHandleOp"
  attr {
    key: "_class"
    value {
      list {
        s: "loc:@stream_1/bias"
      }
    }
  }
  attr {
    key: "allowed_devices"
    value {
      list {
      }
    }
  }
  attr {
    key: "container"
    value {
      s: ""
    }
  }
  attr {
    key: "dtype"
    value {
      type: DT_FLOAT
    }
  }
  attr {
    key: "shape"
    value {
      shape {
        dim {
          size: 3
        }
      }
    }
  }
  attr {
    key: "shared_name"
    value {
      s: "stream_1/bias"
    }
  }
}
node {
  name: "stream_1/bias/IsInitialized/VarIsInitializedOp"
  op: "VarIsInitializedOp"
  input: "stream_1/bias"
}
node {
  name: "stream_1/bias/Assign"
  op: "AssignVariableOp"
  input: "stream_1/bias"
  input: "stream_1/bias/Initializer/zeros"
  attr {
    key: "dtype"
    value {
      type: DT_FLOAT
    }
  }
  attr {
    key: "validate_shape"
    value {
      b: false
    }
  }
}
node {
  name: "stream_1/bias/Read/ReadVariableOp"
  op: "ReadVariableOp"
  input: "stream_1/bias"
  attr {
    key: "dtype"
    value {
      type: DT_FLOAT
    }
  }
}
node {
  name: "stream_1/depthwise_conv2d/depthwise/ReadVariableOp"
  op: "ReadVariableOp"
  input: "stream_1/depthwise_kernel"
  attr {
    key: "dtype"
    value {
      type: DT_FLOAT
    }
  }
}
node {
  name: "stream_1/depthwise_conv2d/depthwise/Shape"
  op: "Const"
  attr {
    key: "dtype"
    value {
      type: DT_INT32
    }
  }
  attr {
    key: "value"
    value {
      tensor {
        dtype: DT_INT32
        tensor_shape {
          dim {
            size: 4
          }
        }
        tensor_content: "\005\000\000\000\001\000\000\000\003\000\000\000\001\000\000\000"
      }
    }
  }
}
node {
  name: "stream_1/depthwise_conv2d/depthwise/dilation_rate"
  op: "Const"
  attr {
    key: "dtype"
    value {
      type: DT_INT32
    }
  }
  attr {
    key: "value"
    value {
      tensor {
        dtype: DT_INT32
        tensor_shape {
          dim {
            size: 2
          }
        }
        tensor_content: "\001\000\000\000\001\000\000\000"
      }
    }
  }
}
node {
  name: "stream_1/depthwise_conv2d/depthwise"
  op: "DepthwiseConv2dNative"
  input: "activation/Relu"
  input: "stream_1/depthwise_conv2d/depthwise/ReadVariableOp"
  attr {
    key: "T"
    value {
      type: DT_FLOAT
    }
  }
  attr {
    key: "data_format"
    value {
      s: "NHWC"
    }
  }
  attr {
    key: "dilations"
    value {
      list {
        i: 1
        i: 1
        i: 1
        i: 1
      }
    }
  }
  attr {
    key: "explicit_paddings"
    value {
      list {
      }
    }
  }
  attr {
    key: "padding"
    value {
      s: "VALID"
    }
  }
  attr {
    key: "strides"
    value {
      list {
        i: 1
        i: 2
        i: 2
        i: 1
      }
    }
  }
}
node {
  name: "stream_1/depthwise_conv2d/BiasAdd/ReadVariableOp"
  op: "ReadVariableOp"
  input: "stream_1/bias"
  attr {
    key: "dtype"
    value {
      type: DT_FLOAT
    }
  }
}
node {
  name: "stream_1/depthwise_conv2d/BiasAdd"
  op: "BiasAdd"
  input: "stream_1/depthwise_conv2d/depthwise"
  input: "stream_1/depthwise_conv2d/BiasAdd/ReadVariableOp"
  attr {
    key: "T"
    value {
      type: DT_FLOAT
    }
  }
  attr {
    key: "data_format"
    value {
      s: "NHWC"
    }
  }
}
node {
  name: "batch_normalization_1/gamma/Initializer/ones"
  op: "Const"
  attr {
    key: "_class"
    value {
      list {
        s: "loc:@batch_normalization_1/gamma"
      }
    }
  }
  attr {
    key: "dtype"
    value {
      type: DT_FLOAT
    }
  }
  attr {
    key: "value"
    value {
      tensor {
        dtype: DT_FLOAT
        tensor_shape {
          dim {
            size: 3
          }
        }
        float_val: 1.0
      }
    }
  }
}
node {
  name: "batch_normalization_1/gamma"
  op: "VarHandleOp"
  attr {
    key: "_class"
    value {
      list {
        s: "loc:@batch_normalization_1/gamma"
      }
    }
  }
  attr {
    key: "allowed_devices"
    value {
      list {
      }
    }
  }
  attr {
    key: "container"
    value {
      s: ""
    }
  }
  attr {
    key: "dtype"
    value {
      type: DT_FLOAT
    }
  }
  attr {
    key: "shape"
    value {
      shape {
        dim {
          size: 3
        }
      }
    }
  }
  attr {
    key: "shared_name"
    value {
      s: "batch_normalization_1/gamma"
    }
  }
}
node {
  name: "batch_normalization_1/gamma/IsInitialized/VarIsInitializedOp"
  op: "VarIsInitializedOp"
  input: "batch_normalization_1/gamma"
}
node {
  name: "batch_normalization_1/gamma/Assign"
  op: "AssignVariableOp"
  input: "batch_normalization_1/gamma"
  input: "batch_normalization_1/gamma/Initializer/ones"
  attr {
    key: "dtype"
    value {
      type: DT_FLOAT
    }
  }
  attr {
    key: "validate_shape"
    value {
      b: false
    }
  }
}
node {
  name: "batch_normalization_1/gamma/Read/ReadVariableOp"
  op: "ReadVariableOp"
  input: "batch_normalization_1/gamma"
  attr {
    key: "dtype"
    value {
      type: DT_FLOAT
    }
  }
}
node {
  name: "batch_normalization_1/beta/Initializer/zeros"
  op: "Const"
  attr {
    key: "_class"
    value {
      list {
        s: "loc:@batch_normalization_1/beta"
      }
    }
  }
  attr {
    key: "dtype"
    value {
      type: DT_FLOAT
    }
  }
  attr {
    key: "value"
    value {
      tensor {
        dtype: DT_FLOAT
        tensor_shape {
          dim {
            size: 3
          }
        }
        float_val: 0.0
      }
    }
  }
}
node {
  name: "batch_normalization_1/beta"
  op: "VarHandleOp"
  attr {
    key: "_class"
    value {
      list {
        s: "loc:@batch_normalization_1/beta"
      }
    }
  }
  attr {
    key: "allowed_devices"
    value {
      list {
      }
    }
  }
  attr {
    key: "container"
    value {
      s: ""
    }
  }
  attr {
    key: "dtype"
    value {
      type: DT_FLOAT
    }
  }
  attr {
    key: "shape"
    value {
      shape {
        dim {
          size: 3
        }
      }
    }
  }
  attr {
    key: "shared_name"
    value {
      s: "batch_normalization_1/beta"
    }
  }
}
node {
  name: "batch_normalization_1/beta/IsInitialized/VarIsInitializedOp"
  op: "VarIsInitializedOp"
  input: "batch_normalization_1/beta"
}
node {
  name: "batch_normalization_1/beta/Assign"
  op: "AssignVariableOp"
  input: "batch_normalization_1/beta"
  input: "batch_normalization_1/beta/Initializer/zeros"
  attr {
    key: "dtype"
    value {
      type: DT_FLOAT
    }
  }
  attr {
    key: "validate_shape"
    value {
      b: false
    }
  }
}
node {
  name: "batch_normalization_1/beta/Read/ReadVariableOp"
  op: "ReadVariableOp"
  input: "batch_normalization_1/beta"
  attr {
    key: "dtype"
    value {
      type: DT_FLOAT
    }
  }
}
node {
  name: "batch_normalization_1/moving_mean/Initializer/zeros"
  op: "Const"
  attr {
    key: "_class"
    value {
      list {
        s: "loc:@batch_normalization_1/moving_mean"
      }
    }
  }
  attr {
    key: "dtype"
    value {
      type: DT_FLOAT
    }
  }
  attr {
    key: "value"
    value {
      tensor {
        dtype: DT_FLOAT
        tensor_shape {
          dim {
            size: 3
          }
        }
        float_val: 0.0
      }
    }
  }
}
node {
  name: "batch_normalization_1/moving_mean"
  op: "VarHandleOp"
  attr {
    key: "_class"
    value {
      list {
        s: "loc:@batch_normalization_1/moving_mean"
      }
    }
  }
  attr {
    key: "allowed_devices"
    value {
      list {
      }
    }
  }
  attr {
    key: "container"
    value {
      s: ""
    }
  }
  attr {
    key: "dtype"
    value {
      type: DT_FLOAT
    }
  }
  attr {
    key: "shape"
    value {
      shape {
        dim {
          size: 3
        }
      }
    }
  }
  attr {
    key: "shared_name"
    value {
      s: "batch_normalization_1/moving_mean"
    }
  }
}
node {
  name: "batch_normalization_1/moving_mean/IsInitialized/VarIsInitializedOp"
  op: "VarIsInitializedOp"
  input: "batch_normalization_1/moving_mean"
}
node {
  name: "batch_normalization_1/moving_mean/Assign"
  op: "AssignVariableOp"
  input: "batch_normalization_1/moving_mean"
  input: "batch_normalization_1/moving_mean/Initializer/zeros"
  attr {
    key: "dtype"
    value {
      type: DT_FLOAT
    }
  }
  attr {
    key: "validate_shape"
    value {
      b: false
    }
  }
}
node {
  name: "batch_normalization_1/moving_mean/Read/ReadVariableOp"
  op: "ReadVariableOp"
  input: "batch_normalization_1/moving_mean"
  attr {
    key: "dtype"
    value {
      type: DT_FLOAT
    }
  }
}
node {
  name: "batch_normalization_1/moving_variance/Initializer/ones"
  op: "Const"
  attr {
    key: "_class"
    value {
      list {
        s: "loc:@batch_normalization_1/moving_variance"
      }
    }
  }
  attr {
    key: "dtype"
    value {
      type: DT_FLOAT
    }
  }
  attr {
    key: "value"
    value {
      tensor {
        dtype: DT_FLOAT
        tensor_shape {
          dim {
            size: 3
          }
        }
        float_val: 1.0
      }
    }
  }
}
node {
  name: "batch_normalization_1/moving_variance"
  op: "VarHandleOp"
  attr {
    key: "_class"
    value {
      list {
        s: "loc:@batch_normalization_1/moving_variance"
      }
    }
  }
  attr {
    key: "allowed_devices"
    value {
      list {
      }
    }
  }
  attr {
    key: "container"
    value {
      s: ""
    }
  }
  attr {
    key: "dtype"
    value {
      type: DT_FLOAT
    }
  }
  attr {
    key: "shape"
    value {
      shape {
        dim {
          size: 3
        }
      }
    }
  }
  attr {
    key: "shared_name"
    value {
      s: "batch_normalization_1/moving_variance"
    }
  }
}
node {
  name: "batch_normalization_1/moving_variance/IsInitialized/VarIsInitializedOp"
  op: "VarIsInitializedOp"
  input: "batch_normalization_1/moving_variance"
}
node {
  name: "batch_normalization_1/moving_variance/Assign"
  op: "AssignVariableOp"
  input: "batch_normalization_1/moving_variance"
  input: "batch_normalization_1/moving_variance/Initializer/ones"
  attr {
    key: "dtype"
    value {
      type: DT_FLOAT
    }
  }
  attr {
    key: "validate_shape"
    value {
      b: false
    }
  }
}
node {
  name: "batch_normalization_1/moving_variance/Read/ReadVariableOp"
  op: "ReadVariableOp"
  input: "batch_normalization_1/moving_variance"
  attr {
    key: "dtype"
    value {
      type: DT_FLOAT
    }
  }
}
node {
  name: "batch_normalization_1/cond"
  op: "If"
  input: "keras_learning_phase"
  input: "batch_normalization_1/gamma"
  input: "batch_normalization_1/beta"
  input: "batch_normalization_1/moving_mean"
  input: "batch_normalization_1/moving_variance"
  input: "stream_1/depthwise_conv2d/BiasAdd"
  attr {
    key: "Tcond"
    value {
      type: DT_BOOL
    }
  }
  attr {
    key: "Tin"
    value {
      list {
        type: DT_RESOURCE
        type: DT_RESOURCE
        type: DT_RESOURCE
        type: DT_RESOURCE
        type: DT_FLOAT
      }
    }
  }
  attr {
    key: "Tout"
    value {
      list {
        type: DT_FLOAT
        type: DT_FLOAT
        type: DT_FLOAT
        type: DT_VARIANT
        type: DT_VARIANT
        type: DT_VARIANT
        type: DT_VARIANT
        type: DT_VARIANT
        type: DT_VARIANT
        type: DT_VARIANT
      }
    }
  }
  attr {
    key: "_lower_using_switch_merge"
    value {
      b: true
    }
  }
  attr {
    key: "_read_only_resource_inputs"
    value {
      list {
        i: 1
        i: 2
        i: 3
        i: 4
      }
    }
  }
  attr {
    key: "else_branch"
    value {
      func {
        name: "batch_normalization_1_cond_false_173"
      }
    }
  }
  attr {
    key: "output_shapes"
    value {
      list {
        shape {
          dim {
            size: 11
          }
          dim {
            size: 60
          }
          dim {
            size: 1
          }
          dim {
            size: 3
          }
        }
        shape {
          dim {
            size: 3
          }
        }
        shape {
          dim {
            size: 3
          }
        }
        shape {
        }
        shape {
        }
        shape {
        }
        shape {
        }
        shape {
        }
        shape {
        }
        shape {
        }
      }
    }
  }
  attr {
    key: "then_branch"
    value {
      func {
        name: "batch_normalization_1_cond_true_172"
      }
    }
  }
}
node {
  name: "batch_normalization_1/cond/Identity"
  op: "Identity"
  input: "batch_normalization_1/cond"
  attr {
    key: "T"
    value {
      type: DT_FLOAT
    }
  }
}
node {
  name: "batch_normalization_1/cond/Identity_1"
  op: "Identity"
  input: "batch_normalization_1/cond:1"
  attr {
    key: "T"
    value {
      type: DT_FLOAT
    }
  }
}
node {
  name: "batch_normalization_1/cond/Identity_2"
  op: "Identity"
  input: "batch_normalization_1/cond:2"
  attr {
    key: "T"
    value {
      type: DT_FLOAT
    }
  }
}
node {
  name: "batch_normalization_1/cond/Identity_3"
  op: "Identity"
  input: "batch_normalization_1/cond:3"
  attr {
    key: "T"
    value {
      type: DT_VARIANT
    }
  }
}
node {
  name: "batch_normalization_1/cond/Identity_4"
  op: "Identity"
  input: "batch_normalization_1/cond:4"
  attr {
    key: "T"
    value {
      type: DT_VARIANT
    }
  }
}
node {
  name: "batch_normalization_1/cond/Identity_5"
  op: "Identity"
  input: "batch_normalization_1/cond:5"
  attr {
    key: "T"
    value {
      type: DT_VARIANT
    }
  }
}
node {
  name: "batch_normalization_1/cond/Identity_6"
  op: "Identity"
  input: "batch_normalization_1/cond:6"
  attr {
    key: "T"
    value {
      type: DT_VARIANT
    }
  }
}
node {
  name: "batch_normalization_1/cond/Identity_7"
  op: "Identity"
  input: "batch_normalization_1/cond:7"
  attr {
    key: "T"
    value {
      type: DT_VARIANT
    }
  }
}
node {
  name: "batch_normalization_1/cond/Identity_8"
  op: "Identity"
  input: "batch_normalization_1/cond:8"
  attr {
    key: "T"
    value {
      type: DT_VARIANT
    }
  }
}
node {
  name: "batch_normalization_1/cond/Identity_9"
  op: "Identity"
  input: "batch_normalization_1/cond:9"
  attr {
    key: "T"
    value {
      type: DT_VARIANT
    }
  }
}
node {
  name: "batch_normalization_1/cond_1"
  op: "StatelessIf"
  input: "keras_learning_phase"
  attr {
    key: "Tcond"
    value {
      type: DT_BOOL
    }
  }
  attr {
    key: "Tin"
    value {
      list {
      }
    }
  }
  attr {
    key: "Tout"
    value {
      list {
        type: DT_FLOAT
      }
    }
  }
  attr {
    key: "_lower_using_switch_merge"
    value {
      b: true
    }
  }
  attr {
    key: "_read_only_resource_inputs"
    value {
      list {
      }
    }
  }
  attr {
    key: "else_branch"
    value {
      func {
        name: "batch_normalization_1_cond_1_false_241"
      }
    }
  }
  attr {
    key: "output_shapes"
    value {
      list {
        shape {
        }
      }
    }
  }
  attr {
    key: "then_branch"
    value {
      func {
        name: "batch_normalization_1_cond_1_true_240"
      }
    }
  }
}
node {
  name: "batch_normalization_1/cond_1/Identity"
  op: "Identity"
  input: "batch_normalization_1/cond_1"
  attr {
    key: "T"
    value {
      type: DT_FLOAT
    }
  }
}
node {
  name: "batch_normalization_1/AssignMovingAvg/sub/x"
  op: "Const"
  attr {
    key: "_class"
    value {
      list {
        s: "loc:@batch_normalization_1/moving_mean"
      }
    }
  }
  attr {
    key: "dtype"
    value {
      type: DT_FLOAT
    }
  }
  attr {
    key: "value"
    value {
      tensor {
        dtype: DT_FLOAT
        tensor_shape {
        }
        float_val: 1.0
      }
    }
  }
}
node {
  name: "batch_normalization_1/AssignMovingAvg/sub"
  op: "Sub"
  input: "batch_normalization_1/AssignMovingAvg/sub/x"
  input: "batch_normalization_1/cond_1/Identity"
  attr {
    key: "T"
    value {
      type: DT_FLOAT
    }
  }
  attr {
    key: "_class"
    value {
      list {
        s: "loc:@batch_normalization_1/moving_mean"
      }
    }
  }
}
node {
  name: "batch_normalization_1/AssignMovingAvg/ReadVariableOp"
  op: "ReadVariableOp"
  input: "batch_normalization_1/moving_mean"
  attr {
    key: "dtype"
    value {
      type: DT_FLOAT
    }
  }
}
node {
  name: "batch_normalization_1/AssignMovingAvg/sub_1"
  op: "Sub"
  input: "batch_normalization_1/AssignMovingAvg/ReadVariableOp"
  input: "batch_normalization_1/cond/Identity_1"
  attr {
    key: "T"
    value {
      type: DT_FLOAT
    }
  }
  attr {
    key: "_class"
    value {
      list {
        s: "loc:@batch_normalization_1/moving_mean"
      }
    }
  }
}
node {
  name: "batch_normalization_1/AssignMovingAvg/mul"
  op: "Mul"
  input: "batch_normalization_1/AssignMovingAvg/sub_1"
  input: "batch_normalization_1/AssignMovingAvg/sub"
  attr {
    key: "T"
    value {
      type: DT_FLOAT
    }
  }
  attr {
    key: "_class"
    value {
      list {
        s: "loc:@batch_normalization_1/moving_mean"
      }
    }
  }
}
node {
  name: "batch_normalization_1/AssignMovingAvg/AssignSubVariableOp"
  op: "AssignSubVariableOp"
  input: "batch_normalization_1/moving_mean"
  input: "batch_normalization_1/AssignMovingAvg/mul"
  attr {
    key: "_class"
    value {
      list {
        s: "loc:@batch_normalization_1/moving_mean"
      }
    }
  }
  attr {
    key: "_has_manual_control_dependencies"
    value {
      b: true
    }
  }
  attr {
    key: "dtype"
    value {
      type: DT_FLOAT
    }
  }
}
node {
  name: "batch_normalization_1/AssignMovingAvg/ReadVariableOp_1"
  op: "ReadVariableOp"
  input: "batch_normalization_1/moving_mean"
  input: "^batch_normalization_1/AssignMovingAvg/AssignSubVariableOp"
  attr {
    key: "_class"
    value {
      list {
        s: "loc:@batch_normalization_1/moving_mean"
      }
    }
  }
  attr {
    key: "dtype"
    value {
      type: DT_FLOAT
    }
  }
}
node {
  name: "batch_normalization_1/AssignMovingAvg_1/sub/x"
  op: "Const"
  attr {
    key: "_class"
    value {
      list {
        s: "loc:@batch_normalization_1/moving_variance"
      }
    }
  }
  attr {
    key: "dtype"
    value {
      type: DT_FLOAT
    }
  }
  attr {
    key: "value"
    value {
      tensor {
        dtype: DT_FLOAT
        tensor_shape {
        }
        float_val: 1.0
      }
    }
  }
}
node {
  name: "batch_normalization_1/AssignMovingAvg_1/sub"
  op: "Sub"
  input: "batch_normalization_1/AssignMovingAvg_1/sub/x"
  input: "batch_normalization_1/cond_1/Identity"
  attr {
    key: "T"
    value {
      type: DT_FLOAT
    }
  }
  attr {
    key: "_class"
    value {
      list {
        s: "loc:@batch_normalization_1/moving_variance"
      }
    }
  }
}
node {
  name: "batch_normalization_1/AssignMovingAvg_1/ReadVariableOp"
  op: "ReadVariableOp"
  input: "batch_normalization_1/moving_variance"
  attr {
    key: "dtype"
    value {
      type: DT_FLOAT
    }
  }
}
node {
  name: "batch_normalization_1/AssignMovingAvg_1/sub_1"
  op: "Sub"
  input: "batch_normalization_1/AssignMovingAvg_1/ReadVariableOp"
  input: "batch_normalization_1/cond/Identity_2"
  attr {
    key: "T"
    value {
      type: DT_FLOAT
    }
  }
  attr {
    key: "_class"
    value {
      list {
        s: "loc:@batch_normalization_1/moving_variance"
      }
    }
  }
}
node {
  name: "batch_normalization_1/AssignMovingAvg_1/mul"
  op: "Mul"
  input: "batch_normalization_1/AssignMovingAvg_1/sub_1"
  input: "batch_normalization_1/AssignMovingAvg_1/sub"
  attr {
    key: "T"
    value {
      type: DT_FLOAT
    }
  }
  attr {
    key: "_class"
    value {
      list {
        s: "loc:@batch_normalization_1/moving_variance"
      }
    }
  }
}
node {
  name: "batch_normalization_1/AssignMovingAvg_1/AssignSubVariableOp"
  op: "AssignSubVariableOp"
  input: "batch_normalization_1/moving_variance"
  input: "batch_normalization_1/AssignMovingAvg_1/mul"
  attr {
    key: "_class"
    value {
      list {
        s: "loc:@batch_normalization_1/moving_variance"
      }
    }
  }
  attr {
    key: "_has_manual_control_dependencies"
    value {
      b: true
    }
  }
  attr {
    key: "dtype"
    value {
      type: DT_FLOAT
    }
  }
}
node {
  name: "batch_normalization_1/AssignMovingAvg_1/ReadVariableOp_1"
  op: "ReadVariableOp"
  input: "batch_normalization_1/moving_variance"
  input: "^batch_normalization_1/AssignMovingAvg_1/AssignSubVariableOp"
  attr {
    key: "_class"
    value {
      list {
        s: "loc:@batch_normalization_1/moving_variance"
      }
    }
  }
  attr {
    key: "dtype"
    value {
      type: DT_FLOAT
    }
  }
}
node {
  name: "activation_1/Relu"
  op: "Relu"
  input: "batch_normalization_1/cond/Identity"
  attr {
    key: "T"
    value {
      type: DT_FLOAT
    }
  }
}
node {
  name: "stream_2/depthwise_kernel/Initializer/stateless_random_uniform/shape"
  op: "Const"
  attr {
    key: "_class"
    value {
      list {
        s: "loc:@stream_2/depthwise_kernel"
      }
    }
  }
  attr {
    key: "dtype"
    value {
      type: DT_INT32
    }
  }
  attr {
    key: "value"
    value {
      tensor {
        dtype: DT_INT32
        tensor_shape {
          dim {
            size: 4
          }
        }
        tensor_content: "\004\000\000\000\001\000\000\000\003\000\000\000\002\000\000\000"
      }
    }
  }
}
node {
  name: "stream_2/depthwise_kernel/Initializer/stateless_random_uniform/min"
  op: "Const"
  attr {
    key: "_class"
    value {
      list {
        s: "loc:@stream_2/depthwise_kernel"
      }
    }
  }
  attr {
    key: "dtype"
    value {
      type: DT_FLOAT
    }
  }
  attr {
    key: "value"
    value {
      tensor {
        dtype: DT_FLOAT
        tensor_shape {
        }
        float_val: -0.547722578048706
      }
    }
  }
}
node {
  name: "stream_2/depthwise_kernel/Initializer/stateless_random_uniform/max"
  op: "Const"
  attr {
    key: "_class"
    value {
      list {
        s: "loc:@stream_2/depthwise_kernel"
      }
    }
  }
  attr {
    key: "dtype"
    value {
      type: DT_FLOAT
    }
  }
  attr {
    key: "value"
    value {
      tensor {
        dtype: DT_FLOAT
        tensor_shape {
        }
        float_val: 0.547722578048706
      }
    }
  }
}
node {
  name: "stream_2/depthwise_kernel/Initializer/stateless_random_uniform/StatelessRandomGetKeyCounter/seed"
  op: "Const"
  attr {
    key: "_class"
    value {
      list {
        s: "loc:@stream_2/depthwise_kernel"
      }
    }
  }
  attr {
    key: "dtype"
    value {
      type: DT_INT32
    }
  }
  attr {
    key: "value"
    value {
      tensor {
        dtype: DT_INT32
        tensor_shape {
          dim {
            size: 2
          }
        }
        tensor_content: "\264.o\033\000\000\000\000"
      }
    }
  }
}
node {
  name: "stream_2/depthwise_kernel/Initializer/stateless_random_uniform/StatelessRandomGetKeyCounter"
  op: "StatelessRandomGetKeyCounter"
  input: "stream_2/depthwise_kernel/Initializer/stateless_random_uniform/StatelessRandomGetKeyCounter/seed"
  attr {
    key: "Tseed"
    value {
      type: DT_INT32
    }
  }
  attr {
    key: "_class"
    value {
      list {
        s: "loc:@stream_2/depthwise_kernel"
      }
    }
  }
}
node {
  name: "stream_2/depthwise_kernel/Initializer/stateless_random_uniform/StatelessRandomUniformV2/alg"
  op: "Const"
  attr {
    key: "_class"
    value {
      list {
        s: "loc:@stream_2/depthwise_kernel"
      }
    }
  }
  attr {
    key: "dtype"
    value {
      type: DT_INT32
    }
  }
  attr {
    key: "value"
    value {
      tensor {
        dtype: DT_INT32
        tensor_shape {
        }
        int_val: 3
      }
    }
  }
}
node {
  name: "stream_2/depthwise_kernel/Initializer/stateless_random_uniform/StatelessRandomUniformV2"
  op: "StatelessRandomUniformV2"
  input: "stream_2/depthwise_kernel/Initializer/stateless_random_uniform/shape"
  input: "stream_2/depthwise_kernel/Initializer/stateless_random_uniform/StatelessRandomGetKeyCounter"
  input: "stream_2/depthwise_kernel/Initializer/stateless_random_uniform/StatelessRandomGetKeyCounter:1"
  input: "stream_2/depthwise_kernel/Initializer/stateless_random_uniform/StatelessRandomUniformV2/alg"
  attr {
    key: "Tshape"
    value {
      type: DT_INT32
    }
  }
  attr {
    key: "_class"
    value {
      list {
        s: "loc:@stream_2/depthwise_kernel"
      }
    }
  }
  attr {
    key: "dtype"
    value {
      type: DT_FLOAT
    }
  }
}
node {
  name: "stream_2/depthwise_kernel/Initializer/stateless_random_uniform/sub"
  op: "Sub"
  input: "stream_2/depthwise_kernel/Initializer/stateless_random_uniform/max"
  input: "stream_2/depthwise_kernel/Initializer/stateless_random_uniform/min"
  attr {
    key: "T"
    value {
      type: DT_FLOAT
    }
  }
  attr {
    key: "_class"
    value {
      list {
        s: "loc:@stream_2/depthwise_kernel"
      }
    }
  }
}
node {
  name: "stream_2/depthwise_kernel/Initializer/stateless_random_uniform/mul"
  op: "Mul"
  input: "stream_2/depthwise_kernel/Initializer/stateless_random_uniform/StatelessRandomUniformV2"
  input: "stream_2/depthwise_kernel/Initializer/stateless_random_uniform/sub"
  attr {
    key: "T"
    value {
      type: DT_FLOAT
    }
  }
  attr {
    key: "_class"
    value {
      list {
        s: "loc:@stream_2/depthwise_kernel"
      }
    }
  }
}
node {
  name: "stream_2/depthwise_kernel/Initializer/stateless_random_uniform"
  op: "AddV2"
  input: "stream_2/depthwise_kernel/Initializer/stateless_random_uniform/mul"
  input: "stream_2/depthwise_kernel/Initializer/stateless_random_uniform/min"
  attr {
    key: "T"
    value {
      type: DT_FLOAT
    }
  }
  attr {
    key: "_class"
    value {
      list {
        s: "loc:@stream_2/depthwise_kernel"
      }
    }
  }
}
node {
  name: "stream_2/depthwise_kernel"
  op: "VarHandleOp"
  attr {
    key: "_class"
    value {
      list {
        s: "loc:@stream_2/depthwise_kernel"
      }
    }
  }
  attr {
    key: "allowed_devices"
    value {
      list {
      }
    }
  }
  attr {
    key: "container"
    value {
      s: ""
    }
  }
  attr {
    key: "dtype"
    value {
      type: DT_FLOAT
    }
  }
  attr {
    key: "shape"
    value {
      shape {
        dim {
          size: 4
        }
        dim {
          size: 1
        }
        dim {
          size: 3
        }
        dim {
          size: 2
        }
      }
    }
  }
  attr {
    key: "shared_name"
    value {
      s: "stream_2/depthwise_kernel"
    }
  }
}
node {
  name: "stream_2/depthwise_kernel/IsInitialized/VarIsInitializedOp"
  op: "VarIsInitializedOp"
  input: "stream_2/depthwise_kernel"
}
node {
  name: "stream_2/depthwise_kernel/Assign"
  op: "AssignVariableOp"
  input: "stream_2/depthwise_kernel"
  input: "stream_2/depthwise_kernel/Initializer/stateless_random_uniform"
  attr {
    key: "dtype"
    value {
      type: DT_FLOAT
    }
  }
  attr {
    key: "validate_shape"
    value {
      b: false
    }
  }
}
node {
  name: "stream_2/depthwise_kernel/Read/ReadVariableOp"
  op: "ReadVariableOp"
  input: "stream_2/depthwise_kernel"
  attr {
    key: "dtype"
    value {
      type: DT_FLOAT
    }
  }
}
node {
  name: "stream_2/bias/Initializer/zeros"
  op: "Const"
  attr {
    key: "_class"
    value {
      list {
        s: "loc:@stream_2/bias"
      }
    }
  }
  attr {
    key: "dtype"
    value {
      type: DT_FLOAT
    }
  }
  attr {
    key: "value"
    value {
      tensor {
        dtype: DT_FLOAT
        tensor_shape {
          dim {
            size: 6
          }
        }
        float_val: 0.0
      }
    }
  }
}
node {
  name: "stream_2/bias"
  op: "VarHandleOp"
  attr {
    key: "_class"
    value {
      list {
        s: "loc:@stream_2/bias"
      }
    }
  }
  attr {
    key: "allowed_devices"
    value {
      list {
      }
    }
  }
  attr {
    key: "container"
    value {
      s: ""
    }
  }
  attr {
    key: "dtype"
    value {
      type: DT_FLOAT
    }
  }
  attr {
    key: "shape"
    value {
      shape {
        dim {
          size: 6
        }
      }
    }
  }
  attr {
    key: "shared_name"
    value {
      s: "stream_2/bias"
    }
  }
}
node {
  name: "stream_2/bias/IsInitialized/VarIsInitializedOp"
  op: "VarIsInitializedOp"
  input: "stream_2/bias"
}
node {
  name: "stream_2/bias/Assign"
  op: "AssignVariableOp"
  input: "stream_2/bias"
  input: "stream_2/bias/Initializer/zeros"
  attr {
    key: "dtype"
    value {
      type: DT_FLOAT
    }
  }
  attr {
    key: "validate_shape"
    value {
      b: false
    }
  }
}
node {
  name: "stream_2/bias/Read/ReadVariableOp"
  op: "ReadVariableOp"
  input: "stream_2/bias"
  attr {
    key: "dtype"
    value {
      type: DT_FLOAT
    }
  }
}
node {
  name: "stream_2/depthwise_conv2d_1/depthwise/ReadVariableOp"
  op: "ReadVariableOp"
  input: "stream_2/depthwise_kernel"
  attr {
    key: "dtype"
    value {
      type: DT_FLOAT
    }
  }
}
node {
  name: "stream_2/depthwise_conv2d_1/depthwise/Shape"
  op: "Const"
  attr {
    key: "dtype"
    value {
      type: DT_INT32
    }
  }
  attr {
    key: "value"
    value {
      tensor {
        dtype: DT_INT32
        tensor_shape {
          dim {
            size: 4
          }
        }
        tensor_content: "\004\000\000\000\001\000\000\000\003\000\000\000\002\000\000\000"
      }
    }
  }
}
node {
  name: "stream_2/depthwise_conv2d_1/depthwise/dilation_rate"
  op: "Const"
  attr {
    key: "dtype"
    value {
      type: DT_INT32
    }
  }
  attr {
    key: "value"
    value {
      tensor {
        dtype: DT_INT32
        tensor_shape {
          dim {
            size: 2
          }
        }
        tensor_content: "\001\000\000\000\001\000\000\000"
      }
    }
  }
}
node {
  name: "stream_2/depthwise_conv2d_1/depthwise"
  op: "DepthwiseConv2dNative"
  input: "activation_1/Relu"
  input: "stream_2/depthwise_conv2d_1/depthwise/ReadVariableOp"
  attr {
    key: "T"
    value {
      type: DT_FLOAT
    }
  }
  attr {
    key: "data_format"
    value {
      s: "NHWC"
    }
  }
  attr {
    key: "dilations"
    value {
      list {
        i: 1
        i: 1
        i: 1
        i: 1
      }
    }
  }
  attr {
    key: "explicit_paddings"
    value {
      list {
      }
    }
  }
  attr {
    key: "padding"
    value {
      s: "VALID"
    }
  }
  attr {
    key: "strides"
    value {
      list {
        i: 1
        i: 1
        i: 1
        i: 1
      }
    }
  }
}
node {
  name: "stream_2/depthwise_conv2d_1/BiasAdd/ReadVariableOp"
  op: "ReadVariableOp"
  input: "stream_2/bias"
  attr {
    key: "dtype"
    value {
      type: DT_FLOAT
    }
  }
}
node {
  name: "stream_2/depthwise_conv2d_1/BiasAdd"
  op: "BiasAdd"
  input: "stream_2/depthwise_conv2d_1/depthwise"
  input: "stream_2/depthwise_conv2d_1/BiasAdd/ReadVariableOp"
  attr {
    key: "T"
    value {
      type: DT_FLOAT
    }
  }
  attr {
    key: "data_format"
    value {
      s: "NHWC"
    }
  }
}
node {
  name: "batch_normalization_2/gamma/Initializer/ones"
  op: "Const"
  attr {
    key: "_class"
    value {
      list {
        s: "loc:@batch_normalization_2/gamma"
      }
    }
  }
  attr {
    key: "dtype"
    value {
      type: DT_FLOAT
    }
  }
  attr {
    key: "value"
    value {
      tensor {
        dtype: DT_FLOAT
        tensor_shape {
          dim {
            size: 6
          }
        }
        float_val: 1.0
      }
    }
  }
}
node {
  name: "batch_normalization_2/gamma"
  op: "VarHandleOp"
  attr {
    key: "_class"
    value {
      list {
        s: "loc:@batch_normalization_2/gamma"
      }
    }
  }
  attr {
    key: "allowed_devices"
    value {
      list {
      }
    }
  }
  attr {
    key: "container"
    value {
      s: ""
    }
  }
  attr {
    key: "dtype"
    value {
      type: DT_FLOAT
    }
  }
  attr {
    key: "shape"
    value {
      shape {
        dim {
          size: 6
        }
      }
    }
  }
  attr {
    key: "shared_name"
    value {
      s: "batch_normalization_2/gamma"
    }
  }
}
node {
  name: "batch_normalization_2/gamma/IsInitialized/VarIsInitializedOp"
  op: "VarIsInitializedOp"
  input: "batch_normalization_2/gamma"
}
node {
  name: "batch_normalization_2/gamma/Assign"
  op: "AssignVariableOp"
  input: "batch_normalization_2/gamma"
  input: "batch_normalization_2/gamma/Initializer/ones"
  attr {
    key: "dtype"
    value {
      type: DT_FLOAT
    }
  }
  attr {
    key: "validate_shape"
    value {
      b: false
    }
  }
}
node {
  name: "batch_normalization_2/gamma/Read/ReadVariableOp"
  op: "ReadVariableOp"
  input: "batch_normalization_2/gamma"
  attr {
    key: "dtype"
    value {
      type: DT_FLOAT
    }
  }
}
node {
  name: "batch_normalization_2/beta/Initializer/zeros"
  op: "Const"
  attr {
    key: "_class"
    value {
      list {
        s: "loc:@batch_normalization_2/beta"
      }
    }
  }
  attr {
    key: "dtype"
    value {
      type: DT_FLOAT
    }
  }
  attr {
    key: "value"
    value {
      tensor {
        dtype: DT_FLOAT
        tensor_shape {
          dim {
            size: 6
          }
        }
        float_val: 0.0
      }
    }
  }
}
node {
  name: "batch_normalization_2/beta"
  op: "VarHandleOp"
  attr {
    key: "_class"
    value {
      list {
        s: "loc:@batch_normalization_2/beta"
      }
    }
  }
  attr {
    key: "allowed_devices"
    value {
      list {
      }
    }
  }
  attr {
    key: "container"
    value {
      s: ""
    }
  }
  attr {
    key: "dtype"
    value {
      type: DT_FLOAT
    }
  }
  attr {
    key: "shape"
    value {
      shape {
        dim {
          size: 6
        }
      }
    }
  }
  attr {
    key: "shared_name"
    value {
      s: "batch_normalization_2/beta"
    }
  }
}
node {
  name: "batch_normalization_2/beta/IsInitialized/VarIsInitializedOp"
  op: "VarIsInitializedOp"
  input: "batch_normalization_2/beta"
}
node {
  name: "batch_normalization_2/beta/Assign"
  op: "AssignVariableOp"
  input: "batch_normalization_2/beta"
  input: "batch_normalization_2/beta/Initializer/zeros"
  attr {
    key: "dtype"
    value {
      type: DT_FLOAT
    }
  }
  attr {
    key: "validate_shape"
    value {
      b: false
    }
  }
}
node {
  name: "batch_normalization_2/beta/Read/ReadVariableOp"
  op: "ReadVariableOp"
  input: "batch_normalization_2/beta"
  attr {
    key: "dtype"
    value {
      type: DT_FLOAT
    }
  }
}
node {
  name: "batch_normalization_2/moving_mean/Initializer/zeros"
  op: "Const"
  attr {
    key: "_class"
    value {
      list {
        s: "loc:@batch_normalization_2/moving_mean"
      }
    }
  }
  attr {
    key: "dtype"
    value {
      type: DT_FLOAT
    }
  }
  attr {
    key: "value"
    value {
      tensor {
        dtype: DT_FLOAT
        tensor_shape {
          dim {
            size: 6
          }
        }
        float_val: 0.0
      }
    }
  }
}
node {
  name: "batch_normalization_2/moving_mean"
  op: "VarHandleOp"
  attr {
    key: "_class"
    value {
      list {
        s: "loc:@batch_normalization_2/moving_mean"
      }
    }
  }
  attr {
    key: "allowed_devices"
    value {
      list {
      }
    }
  }
  attr {
    key: "container"
    value {
      s: ""
    }
  }
  attr {
    key: "dtype"
    value {
      type: DT_FLOAT
    }
  }
  attr {
    key: "shape"
    value {
      shape {
        dim {
          size: 6
        }
      }
    }
  }
  attr {
    key: "shared_name"
    value {
      s: "batch_normalization_2/moving_mean"
    }
  }
}
node {
  name: "batch_normalization_2/moving_mean/IsInitialized/VarIsInitializedOp"
  op: "VarIsInitializedOp"
  input: "batch_normalization_2/moving_mean"
}
node {
  name: "batch_normalization_2/moving_mean/Assign"
  op: "AssignVariableOp"
  input: "batch_normalization_2/moving_mean"
  input: "batch_normalization_2/moving_mean/Initializer/zeros"
  attr {
    key: "dtype"
    value {
      type: DT_FLOAT
    }
  }
  attr {
    key: "validate_shape"
    value {
      b: false
    }
  }
}
node {
  name: "batch_normalization_2/moving_mean/Read/ReadVariableOp"
  op: "ReadVariableOp"
  input: "batch_normalization_2/moving_mean"
  attr {
    key: "dtype"
    value {
      type: DT_FLOAT
    }
  }
}
node {
  name: "batch_normalization_2/moving_variance/Initializer/ones"
  op: "Const"
  attr {
    key: "_class"
    value {
      list {
        s: "loc:@batch_normalization_2/moving_variance"
      }
    }
  }
  attr {
    key: "dtype"
    value {
      type: DT_FLOAT
    }
  }
  attr {
    key: "value"
    value {
      tensor {
        dtype: DT_FLOAT
        tensor_shape {
          dim {
            size: 6
          }
        }
        float_val: 1.0
      }
    }
  }
}
node {
  name: "batch_normalization_2/moving_variance"
  op: "VarHandleOp"
  attr {
    key: "_class"
    value {
      list {
        s: "loc:@batch_normalization_2/moving_variance"
      }
    }
  }
  attr {
    key: "allowed_devices"
    value {
      list {
      }
    }
  }
  attr {
    key: "container"
    value {
      s: ""
    }
  }
  attr {
    key: "dtype"
    value {
      type: DT_FLOAT
    }
  }
  attr {
    key: "shape"
    value {
      shape {
        dim {
          size: 6
        }
      }
    }
  }
  attr {
    key: "shared_name"
    value {
      s: "batch_normalization_2/moving_variance"
    }
  }
}
node {
  name: "batch_normalization_2/moving_variance/IsInitialized/VarIsInitializedOp"
  op: "VarIsInitializedOp"
  input: "batch_normalization_2/moving_variance"
}
node {
  name: "batch_normalization_2/moving_variance/Assign"
  op: "AssignVariableOp"
  input: "batch_normalization_2/moving_variance"
  input: "batch_normalization_2/moving_variance/Initializer/ones"
  attr {
    key: "dtype"
    value {
      type: DT_FLOAT
    }
  }
  attr {
    key: "validate_shape"
    value {
      b: false
    }
  }
}
node {
  name: "batch_normalization_2/moving_variance/Read/ReadVariableOp"
  op: "ReadVariableOp"
  input: "batch_normalization_2/moving_variance"
  attr {
    key: "dtype"
    value {
      type: DT_FLOAT
    }
  }
}
node {
  name: "batch_normalization_2/cond"
  op: "If"
  input: "keras_learning_phase"
  input: "batch_normalization_2/gamma"
  input: "batch_normalization_2/beta"
  input: "batch_normalization_2/moving_mean"
  input: "batch_normalization_2/moving_variance"
  input: "stream_2/depthwise_conv2d_1/BiasAdd"
  attr {
    key: "Tcond"
    value {
      type: DT_BOOL
    }
  }
  attr {
    key: "Tin"
    value {
      list {
        type: DT_RESOURCE
        type: DT_RESOURCE
        type: DT_RESOURCE
        type: DT_RESOURCE
        type: DT_FLOAT
      }
    }
  }
  attr {
    key: "Tout"
    value {
      list {
        type: DT_FLOAT
        type: DT_FLOAT
        type: DT_FLOAT
        type: DT_VARIANT
        type: DT_VARIANT
        type: DT_VARIANT
        type: DT_VARIANT
        type: DT_VARIANT
        type: DT_VARIANT
        type: DT_VARIANT
      }
    }
  }
  attr {
    key: "_lower_using_switch_merge"
    value {
      b: true
    }
  }
  attr {
    key: "_read_only_resource_inputs"
    value {
      list {
        i: 1
        i: 2
        i: 3
        i: 4
      }
    }
  }
  attr {
    key: "else_branch"
    value {
      func {
        name: "batch_normalization_2_cond_false_302"
      }
    }
  }
  attr {
    key: "output_shapes"
    value {
      list {
        shape {
          dim {
            size: 11
          }
          dim {
            size: 57
          }
          dim {
            size: 1
          }
          dim {
            size: 6
          }
        }
        shape {
          dim {
            size: 6
          }
        }
        shape {
          dim {
            size: 6
          }
        }
        shape {
        }
        shape {
        }
        shape {
        }
        shape {
        }
        shape {
        }
        shape {
        }
        shape {
        }
      }
    }
  }
  attr {
    key: "then_branch"
    value {
      func {
        name: "batch_normalization_2_cond_true_301"
      }
    }
  }
}
node {
  name: "batch_normalization_2/cond/Identity"
  op: "Identity"
  input: "batch_normalization_2/cond"
  attr {
    key: "T"
    value {
      type: DT_FLOAT
    }
  }
}
node {
  name: "batch_normalization_2/cond/Identity_1"
  op: "Identity"
  input: "batch_normalization_2/cond:1"
  attr {
    key: "T"
    value {
      type: DT_FLOAT
    }
  }
}
node {
  name: "batch_normalization_2/cond/Identity_2"
  op: "Identity"
  input: "batch_normalization_2/cond:2"
  attr {
    key: "T"
    value {
      type: DT_FLOAT
    }
  }
}
node {
  name: "batch_normalization_2/cond/Identity_3"
  op: "Identity"
  input: "batch_normalization_2/cond:3"
  attr {
    key: "T"
    value {
      type: DT_VARIANT
    }
  }
}
node {
  name: "batch_normalization_2/cond/Identity_4"
  op: "Identity"
  input: "batch_normalization_2/cond:4"
  attr {
    key: "T"
    value {
      type: DT_VARIANT
    }
  }
}
node {
  name: "batch_normalization_2/cond/Identity_5"
  op: "Identity"
  input: "batch_normalization_2/cond:5"
  attr {
    key: "T"
    value {
      type: DT_VARIANT
    }
  }
}
node {
  name: "batch_normalization_2/cond/Identity_6"
  op: "Identity"
  input: "batch_normalization_2/cond:6"
  attr {
    key: "T"
    value {
      type: DT_VARIANT
    }
  }
}
node {
  name: "batch_normalization_2/cond/Identity_7"
  op: "Identity"
  input: "batch_normalization_2/cond:7"
  attr {
    key: "T"
    value {
      type: DT_VARIANT
    }
  }
}
node {
  name: "batch_normalization_2/cond/Identity_8"
  op: "Identity"
  input: "batch_normalization_2/cond:8"
  attr {
    key: "T"
    value {
      type: DT_VARIANT
    }
  }
}
node {
  name: "batch_normalization_2/cond/Identity_9"
  op: "Identity"
  input: "batch_normalization_2/cond:9"
  attr {
    key: "T"
    value {
      type: DT_VARIANT
    }
  }
}
node {
  name: "batch_normalization_2/cond_1"
  op: "StatelessIf"
  input: "keras_learning_phase"
  attr {
    key: "Tcond"
    value {
      type: DT_BOOL
    }
  }
  attr {
    key: "Tin"
    value {
      list {
      }
    }
  }
  attr {
    key: "Tout"
    value {
      list {
        type: DT_FLOAT
      }
    }
  }
  attr {
    key: "_lower_using_switch_merge"
    value {
      b: true
    }
  }
  attr {
    key: "_read_only_resource_inputs"
    value {
      list {
      }
    }
  }
  attr {
    key: "else_branch"
    value {
      func {
        name: "batch_normalization_2_cond_1_false_370"
      }
    }
  }
  attr {
    key: "output_shapes"
    value {
      list {
        shape {
        }
      }
    }
  }
  attr {
    key: "then_branch"
    value {
      func {
        name: "batch_normalization_2_cond_1_true_369"
      }
    }
  }
}
node {
  name: "batch_normalization_2/cond_1/Identity"
  op: "Identity"
  input: "batch_normalization_2/cond_1"
  attr {
    key: "T"
    value {
      type: DT_FLOAT
    }
  }
}
node {
  name: "batch_normalization_2/AssignMovingAvg/sub/x"
  op: "Const"
  attr {
    key: "_class"
    value {
      list {
        s: "loc:@batch_normalization_2/moving_mean"
      }
    }
  }
  attr {
    key: "dtype"
    value {
      type: DT_FLOAT
    }
  }
  attr {
    key: "value"
    value {
      tensor {
        dtype: DT_FLOAT
        tensor_shape {
        }
        float_val: 1.0
      }
    }
  }
}
node {
  name: "batch_normalization_2/AssignMovingAvg/sub"
  op: "Sub"
  input: "batch_normalization_2/AssignMovingAvg/sub/x"
  input: "batch_normalization_2/cond_1/Identity"
  attr {
    key: "T"
    value {
      type: DT_FLOAT
    }
  }
  attr {
    key: "_class"
    value {
      list {
        s: "loc:@batch_normalization_2/moving_mean"
      }
    }
  }
}
node {
  name: "batch_normalization_2/AssignMovingAvg/ReadVariableOp"
  op: "ReadVariableOp"
  input: "batch_normalization_2/moving_mean"
  attr {
    key: "dtype"
    value {
      type: DT_FLOAT
    }
  }
}
node {
  name: "batch_normalization_2/AssignMovingAvg/sub_1"
  op: "Sub"
  input: "batch_normalization_2/AssignMovingAvg/ReadVariableOp"
  input: "batch_normalization_2/cond/Identity_1"
  attr {
    key: "T"
    value {
      type: DT_FLOAT
    }
  }
  attr {
    key: "_class"
    value {
      list {
        s: "loc:@batch_normalization_2/moving_mean"
      }
    }
  }
}
node {
  name: "batch_normalization_2/AssignMovingAvg/mul"
  op: "Mul"
  input: "batch_normalization_2/AssignMovingAvg/sub_1"
  input: "batch_normalization_2/AssignMovingAvg/sub"
  attr {
    key: "T"
    value {
      type: DT_FLOAT
    }
  }
  attr {
    key: "_class"
    value {
      list {
        s: "loc:@batch_normalization_2/moving_mean"
      }
    }
  }
}
node {
  name: "batch_normalization_2/AssignMovingAvg/AssignSubVariableOp"
  op: "AssignSubVariableOp"
  input: "batch_normalization_2/moving_mean"
  input: "batch_normalization_2/AssignMovingAvg/mul"
  attr {
    key: "_class"
    value {
      list {
        s: "loc:@batch_normalization_2/moving_mean"
      }
    }
  }
  attr {
    key: "_has_manual_control_dependencies"
    value {
      b: true
    }
  }
  attr {
    key: "dtype"
    value {
      type: DT_FLOAT
    }
  }
}
node {
  name: "batch_normalization_2/AssignMovingAvg/ReadVariableOp_1"
  op: "ReadVariableOp"
  input: "batch_normalization_2/moving_mean"
  input: "^batch_normalization_2/AssignMovingAvg/AssignSubVariableOp"
  attr {
    key: "_class"
    value {
      list {
        s: "loc:@batch_normalization_2/moving_mean"
      }
    }
  }
  attr {
    key: "dtype"
    value {
      type: DT_FLOAT
    }
  }
}
node {
  name: "batch_normalization_2/AssignMovingAvg_1/sub/x"
  op: "Const"
  attr {
    key: "_class"
    value {
      list {
        s: "loc:@batch_normalization_2/moving_variance"
      }
    }
  }
  attr {
    key: "dtype"
    value {
      type: DT_FLOAT
    }
  }
  attr {
    key: "value"
    value {
      tensor {
        dtype: DT_FLOAT
        tensor_shape {
        }
        float_val: 1.0
      }
    }
  }
}
node {
  name: "batch_normalization_2/AssignMovingAvg_1/sub"
  op: "Sub"
  input: "batch_normalization_2/AssignMovingAvg_1/sub/x"
  input: "batch_normalization_2/cond_1/Identity"
  attr {
    key: "T"
    value {
      type: DT_FLOAT
    }
  }
  attr {
    key: "_class"
    value {
      list {
        s: "loc:@batch_normalization_2/moving_variance"
      }
    }
  }
}
node {
  name: "batch_normalization_2/AssignMovingAvg_1/ReadVariableOp"
  op: "ReadVariableOp"
  input: "batch_normalization_2/moving_variance"
  attr {
    key: "dtype"
    value {
      type: DT_FLOAT
    }
  }
}
node {
  name: "batch_normalization_2/AssignMovingAvg_1/sub_1"
  op: "Sub"
  input: "batch_normalization_2/AssignMovingAvg_1/ReadVariableOp"
  input: "batch_normalization_2/cond/Identity_2"
  attr {
    key: "T"
    value {
      type: DT_FLOAT
    }
  }
  attr {
    key: "_class"
    value {
      list {
        s: "loc:@batch_normalization_2/moving_variance"
      }
    }
  }
}
node {
  name: "batch_normalization_2/AssignMovingAvg_1/mul"
  op: "Mul"
  input: "batch_normalization_2/AssignMovingAvg_1/sub_1"
  input: "batch_normalization_2/AssignMovingAvg_1/sub"
  attr {
    key: "T"
    value {
      type: DT_FLOAT
    }
  }
  attr {
    key: "_class"
    value {
      list {
        s: "loc:@batch_normalization_2/moving_variance"
      }
    }
  }
}
node {
  name: "batch_normalization_2/AssignMovingAvg_1/AssignSubVariableOp"
  op: "AssignSubVariableOp"
  input: "batch_normalization_2/moving_variance"
  input: "batch_normalization_2/AssignMovingAvg_1/mul"
  attr {
    key: "_class"
    value {
      list {
        s: "loc:@batch_normalization_2/moving_variance"
      }
    }
  }
  attr {
    key: "_has_manual_control_dependencies"
    value {
      b: true
    }
  }
  attr {
    key: "dtype"
    value {
      type: DT_FLOAT
    }
  }
}
node {
  name: "batch_normalization_2/AssignMovingAvg_1/ReadVariableOp_1"
  op: "ReadVariableOp"
  input: "batch_normalization_2/moving_variance"
  input: "^batch_normalization_2/AssignMovingAvg_1/AssignSubVariableOp"
  attr {
    key: "_class"
    value {
      list {
        s: "loc:@batch_normalization_2/moving_variance"
      }
    }
  }
  attr {
    key: "dtype"
    value {
      type: DT_FLOAT
    }
  }
}
node {
  name: "activation_2/Relu"
  op: "Relu"
  input: "batch_normalization_2/cond/Identity"
  attr {
    key: "T"
    value {
      type: DT_FLOAT
    }
  }
}
node {
  name: "stream_3/average_pooling2d/AvgPool"
  op: "AvgPool"
  input: "activation_2/Relu"
  attr {
    key: "T"
    value {
      type: DT_FLOAT
    }
  }
  attr {
    key: "data_format"
    value {
      s: "NHWC"
    }
  }
  attr {
    key: "ksize"
    value {
      list {
        i: 1
        i: 3
        i: 1
        i: 1
      }
    }
  }
  attr {
    key: "padding"
    value {
      s: "VALID"
    }
  }
  attr {
    key: "strides"
    value {
      list {
        i: 1
        i: 3
        i: 1
        i: 1
      }
    }
  }
}
node {
  name: "stream_4/depthwise_kernel/Initializer/stateless_random_uniform/shape"
  op: "Const"
  attr {
    key: "_class"
    value {
      list {
        s: "loc:@stream_4/depthwise_kernel"
      }
    }
  }
  attr {
    key: "dtype"
    value {
      type: DT_INT32
    }
  }
  attr {
    key: "value"
    value {
      tensor {
        dtype: DT_INT32
        tensor_shape {
          dim {
            size: 4
          }
        }
        tensor_content: "\004\000\000\000\001\000\000\000\006\000\000\000\002\000\000\000"
      }
    }
  }
}
node {
  name: "stream_4/depthwise_kernel/Initializer/stateless_random_uniform/min"
  op: "Const"
  attr {
    key: "_class"
    value {
      list {
        s: "loc:@stream_4/depthwise_kernel"
      }
    }
  }
  attr {
    key: "dtype"
    value {
      type: DT_FLOAT
    }
  }
  attr {
    key: "value"
    value {
      tensor {
        dtype: DT_FLOAT
        tensor_shape {
        }
        float_val: -0.4330126941204071
      }
    }
  }
}
node {
  name: "stream_4/depthwise_kernel/Initializer/stateless_random_uniform/max"
  op: "Const"
  attr {
    key: "_class"
    value {
      list {
        s: "loc:@stream_4/depthwise_kernel"
      }
    }
  }
  attr {
    key: "dtype"
    value {
      type: DT_FLOAT
    }
  }
  attr {
    key: "value"
    value {
      tensor {
        dtype: DT_FLOAT
        tensor_shape {
        }
        float_val: 0.4330126941204071
      }
    }
  }
}
node {
  name: "stream_4/depthwise_kernel/Initializer/stateless_random_uniform/StatelessRandomGetKeyCounter/seed"
  op: "Const"
  attr {
    key: "_class"
    value {
      list {
        s: "loc:@stream_4/depthwise_kernel"
      }
    }
  }
  attr {
    key: "dtype"
    value {
      type: DT_INT32
    }
  }
  attr {
    key: "value"
    value {
      tensor {
        dtype: DT_INT32
        tensor_shape {
          dim {
            size: 2
          }
        }
        tensor_content: "t\'I\021\000\000\000\000"
      }
    }
  }
}
node {
  name: "stream_4/depthwise_kernel/Initializer/stateless_random_uniform/StatelessRandomGetKeyCounter"
  op: "StatelessRandomGetKeyCounter"
  input: "stream_4/depthwise_kernel/Initializer/stateless_random_uniform/StatelessRandomGetKeyCounter/seed"
  attr {
    key: "Tseed"
    value {
      type: DT_INT32
    }
  }
  attr {
    key: "_class"
    value {
      list {
        s: "loc:@stream_4/depthwise_kernel"
      }
    }
  }
}
node {
  name: "stream_4/depthwise_kernel/Initializer/stateless_random_uniform/StatelessRandomUniformV2/alg"
  op: "Const"
  attr {
    key: "_class"
    value {
      list {
        s: "loc:@stream_4/depthwise_kernel"
      }
    }
  }
  attr {
    key: "dtype"
    value {
      type: DT_INT32
    }
  }
  attr {
    key: "value"
    value {
      tensor {
        dtype: DT_INT32
        tensor_shape {
        }
        int_val: 3
      }
    }
  }
}
node {
  name: "stream_4/depthwise_kernel/Initializer/stateless_random_uniform/StatelessRandomUniformV2"
  op: "StatelessRandomUniformV2"
  input: "stream_4/depthwise_kernel/Initializer/stateless_random_uniform/shape"
  input: "stream_4/depthwise_kernel/Initializer/stateless_random_uniform/StatelessRandomGetKeyCounter"
  input: "stream_4/depthwise_kernel/Initializer/stateless_random_uniform/StatelessRandomGetKeyCounter:1"
  input: "stream_4/depthwise_kernel/Initializer/stateless_random_uniform/StatelessRandomUniformV2/alg"
  attr {
    key: "Tshape"
    value {
      type: DT_INT32
    }
  }
  attr {
    key: "_class"
    value {
      list {
        s: "loc:@stream_4/depthwise_kernel"
      }
    }
  }
  attr {
    key: "dtype"
    value {
      type: DT_FLOAT
    }
  }
}
node {
  name: "stream_4/depthwise_kernel/Initializer/stateless_random_uniform/sub"
  op: "Sub"
  input: "stream_4/depthwise_kernel/Initializer/stateless_random_uniform/max"
  input: "stream_4/depthwise_kernel/Initializer/stateless_random_uniform/min"
  attr {
    key: "T"
    value {
      type: DT_FLOAT
    }
  }
  attr {
    key: "_class"
    value {
      list {
        s: "loc:@stream_4/depthwise_kernel"
      }
    }
  }
}
node {
  name: "stream_4/depthwise_kernel/Initializer/stateless_random_uniform/mul"
  op: "Mul"
  input: "stream_4/depthwise_kernel/Initializer/stateless_random_uniform/StatelessRandomUniformV2"
  input: "stream_4/depthwise_kernel/Initializer/stateless_random_uniform/sub"
  attr {
    key: "T"
    value {
      type: DT_FLOAT
    }
  }
  attr {
    key: "_class"
    value {
      list {
        s: "loc:@stream_4/depthwise_kernel"
      }
    }
  }
}
node {
  name: "stream_4/depthwise_kernel/Initializer/stateless_random_uniform"
  op: "AddV2"
  input: "stream_4/depthwise_kernel/Initializer/stateless_random_uniform/mul"
  input: "stream_4/depthwise_kernel/Initializer/stateless_random_uniform/min"
  attr {
    key: "T"
    value {
      type: DT_FLOAT
    }
  }
  attr {
    key: "_class"
    value {
      list {
        s: "loc:@stream_4/depthwise_kernel"
      }
    }
  }
}
node {
  name: "stream_4/depthwise_kernel"
  op: "VarHandleOp"
  attr {
    key: "_class"
    value {
      list {
        s: "loc:@stream_4/depthwise_kernel"
      }
    }
  }
  attr {
    key: "allowed_devices"
    value {
      list {
      }
    }
  }
  attr {
    key: "container"
    value {
      s: ""
    }
  }
  attr {
    key: "dtype"
    value {
      type: DT_FLOAT
    }
  }
  attr {
    key: "shape"
    value {
      shape {
        dim {
          size: 4
        }
        dim {
          size: 1
        }
        dim {
          size: 6
        }
        dim {
          size: 2
        }
      }
    }
  }
  attr {
    key: "shared_name"
    value {
      s: "stream_4/depthwise_kernel"
    }
  }
}
node {
  name: "stream_4/depthwise_kernel/IsInitialized/VarIsInitializedOp"
  op: "VarIsInitializedOp"
  input: "stream_4/depthwise_kernel"
}
node {
  name: "stream_4/depthwise_kernel/Assign"
  op: "AssignVariableOp"
  input: "stream_4/depthwise_kernel"
  input: "stream_4/depthwise_kernel/Initializer/stateless_random_uniform"
  attr {
    key: "dtype"
    value {
      type: DT_FLOAT
    }
  }
  attr {
    key: "validate_shape"
    value {
      b: false
    }
  }
}
node {
  name: "stream_4/depthwise_kernel/Read/ReadVariableOp"
  op: "ReadVariableOp"
  input: "stream_4/depthwise_kernel"
  attr {
    key: "dtype"
    value {
      type: DT_FLOAT
    }
  }
}
node {
  name: "stream_4/bias/Initializer/zeros"
  op: "Const"
  attr {
    key: "_class"
    value {
      list {
        s: "loc:@stream_4/bias"
      }
    }
  }
  attr {
    key: "dtype"
    value {
      type: DT_FLOAT
    }
  }
  attr {
    key: "value"
    value {
      tensor {
        dtype: DT_FLOAT
        tensor_shape {
          dim {
            size: 12
          }
        }
        float_val: 0.0
      }
    }
  }
}
node {
  name: "stream_4/bias"
  op: "VarHandleOp"
  attr {
    key: "_class"
    value {
      list {
        s: "loc:@stream_4/bias"
      }
    }
  }
  attr {
    key: "allowed_devices"
    value {
      list {
      }
    }
  }
  attr {
    key: "container"
    value {
      s: ""
    }
  }
  attr {
    key: "dtype"
    value {
      type: DT_FLOAT
    }
  }
  attr {
    key: "shape"
    value {
      shape {
        dim {
          size: 12
        }
      }
    }
  }
  attr {
    key: "shared_name"
    value {
      s: "stream_4/bias"
    }
  }
}
node {
  name: "stream_4/bias/IsInitialized/VarIsInitializedOp"
  op: "VarIsInitializedOp"
  input: "stream_4/bias"
}
node {
  name: "stream_4/bias/Assign"
  op: "AssignVariableOp"
  input: "stream_4/bias"
  input: "stream_4/bias/Initializer/zeros"
  attr {
    key: "dtype"
    value {
      type: DT_FLOAT
    }
  }
  attr {
    key: "validate_shape"
    value {
      b: false
    }
  }
}
node {
  name: "stream_4/bias/Read/ReadVariableOp"
  op: "ReadVariableOp"
  input: "stream_4/bias"
  attr {
    key: "dtype"
    value {
      type: DT_FLOAT
    }
  }
}
node {
  name: "stream_4/depthwise_conv2d_2/depthwise/ReadVariableOp"
  op: "ReadVariableOp"
  input: "stream_4/depthwise_kernel"
  attr {
    key: "dtype"
    value {
      type: DT_FLOAT
    }
  }
}
node {
  name: "stream_4/depthwise_conv2d_2/depthwise/Shape"
  op: "Const"
  attr {
    key: "dtype"
    value {
      type: DT_INT32
    }
  }
  attr {
    key: "value"
    value {
      tensor {
        dtype: DT_INT32
        tensor_shape {
          dim {
            size: 4
          }
        }
        tensor_content: "\004\000\000\000\001\000\000\000\006\000\000\000\002\000\000\000"
      }
    }
  }
}
node {
  name: "stream_4/depthwise_conv2d_2/depthwise/dilation_rate"
  op: "Const"
  attr {
    key: "dtype"
    value {
      type: DT_INT32
    }
  }
  attr {
    key: "value"
    value {
      tensor {
        dtype: DT_INT32
        tensor_shape {
          dim {
            size: 2
          }
        }
        tensor_content: "\001\000\000\000\001\000\000\000"
      }
    }
  }
}
node {
  name: "stream_4/depthwise_conv2d_2/depthwise"
  op: "DepthwiseConv2dNative"
  input: "stream_3/average_pooling2d/AvgPool"
  input: "stream_4/depthwise_conv2d_2/depthwise/ReadVariableOp"
  attr {
    key: "T"
    value {
      type: DT_FLOAT
    }
  }
  attr {
    key: "data_format"
    value {
      s: "NHWC"
    }
  }
  attr {
    key: "dilations"
    value {
      list {
        i: 1
        i: 1
        i: 1
        i: 1
      }
    }
  }
  attr {
    key: "explicit_paddings"
    value {
      list {
      }
    }
  }
  attr {
    key: "padding"
    value {
      s: "VALID"
    }
  }
  attr {
    key: "strides"
    value {
      list {
        i: 1
        i: 2
        i: 2
        i: 1
      }
    }
  }
}
node {
  name: "stream_4/depthwise_conv2d_2/BiasAdd/ReadVariableOp"
  op: "ReadVariableOp"
  input: "stream_4/bias"
  attr {
    key: "dtype"
    value {
      type: DT_FLOAT
    }
  }
}
node {
  name: "stream_4/depthwise_conv2d_2/BiasAdd"
  op: "BiasAdd"
  input: "stream_4/depthwise_conv2d_2/depthwise"
  input: "stream_4/depthwise_conv2d_2/BiasAdd/ReadVariableOp"
  attr {
    key: "T"
    value {
      type: DT_FLOAT
    }
  }
  attr {
    key: "data_format"
    value {
      s: "NHWC"
    }
  }
}
node {
  name: "batch_normalization_3/gamma/Initializer/ones"
  op: "Const"
  attr {
    key: "_class"
    value {
      list {
        s: "loc:@batch_normalization_3/gamma"
      }
    }
  }
  attr {
    key: "dtype"
    value {
      type: DT_FLOAT
    }
  }
  attr {
    key: "value"
    value {
      tensor {
        dtype: DT_FLOAT
        tensor_shape {
          dim {
            size: 12
          }
        }
        float_val: 1.0
      }
    }
  }
}
node {
  name: "batch_normalization_3/gamma"
  op: "VarHandleOp"
  attr {
    key: "_class"
    value {
      list {
        s: "loc:@batch_normalization_3/gamma"
      }
    }
  }
  attr {
    key: "allowed_devices"
    value {
      list {
      }
    }
  }
  attr {
    key: "container"
    value {
      s: ""
    }
  }
  attr {
    key: "dtype"
    value {
      type: DT_FLOAT
    }
  }
  attr {
    key: "shape"
    value {
      shape {
        dim {
          size: 12
        }
      }
    }
  }
  attr {
    key: "shared_name"
    value {
      s: "batch_normalization_3/gamma"
    }
  }
}
node {
  name: "batch_normalization_3/gamma/IsInitialized/VarIsInitializedOp"
  op: "VarIsInitializedOp"
  input: "batch_normalization_3/gamma"
}
node {
  name: "batch_normalization_3/gamma/Assign"
  op: "AssignVariableOp"
  input: "batch_normalization_3/gamma"
  input: "batch_normalization_3/gamma/Initializer/ones"
  attr {
    key: "dtype"
    value {
      type: DT_FLOAT
    }
  }
  attr {
    key: "validate_shape"
    value {
      b: false
    }
  }
}
node {
  name: "batch_normalization_3/gamma/Read/ReadVariableOp"
  op: "ReadVariableOp"
  input: "batch_normalization_3/gamma"
  attr {
    key: "dtype"
    value {
      type: DT_FLOAT
    }
  }
}
node {
  name: "batch_normalization_3/beta/Initializer/zeros"
  op: "Const"
  attr {
    key: "_class"
    value {
      list {
        s: "loc:@batch_normalization_3/beta"
      }
    }
  }
  attr {
    key: "dtype"
    value {
      type: DT_FLOAT
    }
  }
  attr {
    key: "value"
    value {
      tensor {
        dtype: DT_FLOAT
        tensor_shape {
          dim {
            size: 12
          }
        }
        float_val: 0.0
      }
    }
  }
}
node {
  name: "batch_normalization_3/beta"
  op: "VarHandleOp"
  attr {
    key: "_class"
    value {
      list {
        s: "loc:@batch_normalization_3/beta"
      }
    }
  }
  attr {
    key: "allowed_devices"
    value {
      list {
      }
    }
  }
  attr {
    key: "container"
    value {
      s: ""
    }
  }
  attr {
    key: "dtype"
    value {
      type: DT_FLOAT
    }
  }
  attr {
    key: "shape"
    value {
      shape {
        dim {
          size: 12
        }
      }
    }
  }
  attr {
    key: "shared_name"
    value {
      s: "batch_normalization_3/beta"
    }
  }
}
node {
  name: "batch_normalization_3/beta/IsInitialized/VarIsInitializedOp"
  op: "VarIsInitializedOp"
  input: "batch_normalization_3/beta"
}
node {
  name: "batch_normalization_3/beta/Assign"
  op: "AssignVariableOp"
  input: "batch_normalization_3/beta"
  input: "batch_normalization_3/beta/Initializer/zeros"
  attr {
    key: "dtype"
    value {
      type: DT_FLOAT
    }
  }
  attr {
    key: "validate_shape"
    value {
      b: false
    }
  }
}
node {
  name: "batch_normalization_3/beta/Read/ReadVariableOp"
  op: "ReadVariableOp"
  input: "batch_normalization_3/beta"
  attr {
    key: "dtype"
    value {
      type: DT_FLOAT
    }
  }
}
node {
  name: "batch_normalization_3/moving_mean/Initializer/zeros"
  op: "Const"
  attr {
    key: "_class"
    value {
      list {
        s: "loc:@batch_normalization_3/moving_mean"
      }
    }
  }
  attr {
    key: "dtype"
    value {
      type: DT_FLOAT
    }
  }
  attr {
    key: "value"
    value {
      tensor {
        dtype: DT_FLOAT
        tensor_shape {
          dim {
            size: 12
          }
        }
        float_val: 0.0
      }
    }
  }
}
node {
  name: "batch_normalization_3/moving_mean"
  op: "VarHandleOp"
  attr {
    key: "_class"
    value {
      list {
        s: "loc:@batch_normalization_3/moving_mean"
      }
    }
  }
  attr {
    key: "allowed_devices"
    value {
      list {
      }
    }
  }
  attr {
    key: "container"
    value {
      s: ""
    }
  }
  attr {
    key: "dtype"
    value {
      type: DT_FLOAT
    }
  }
  attr {
    key: "shape"
    value {
      shape {
        dim {
          size: 12
        }
      }
    }
  }
  attr {
    key: "shared_name"
    value {
      s: "batch_normalization_3/moving_mean"
    }
  }
}
node {
  name: "batch_normalization_3/moving_mean/IsInitialized/VarIsInitializedOp"
  op: "VarIsInitializedOp"
  input: "batch_normalization_3/moving_mean"
}
node {
  name: "batch_normalization_3/moving_mean/Assign"
  op: "AssignVariableOp"
  input: "batch_normalization_3/moving_mean"
  input: "batch_normalization_3/moving_mean/Initializer/zeros"
  attr {
    key: "dtype"
    value {
      type: DT_FLOAT
    }
  }
  attr {
    key: "validate_shape"
    value {
      b: false
    }
  }
}
node {
  name: "batch_normalization_3/moving_mean/Read/ReadVariableOp"
  op: "ReadVariableOp"
  input: "batch_normalization_3/moving_mean"
  attr {
    key: "dtype"
    value {
      type: DT_FLOAT
    }
  }
}
node {
  name: "batch_normalization_3/moving_variance/Initializer/ones"
  op: "Const"
  attr {
    key: "_class"
    value {
      list {
        s: "loc:@batch_normalization_3/moving_variance"
      }
    }
  }
  attr {
    key: "dtype"
    value {
      type: DT_FLOAT
    }
  }
  attr {
    key: "value"
    value {
      tensor {
        dtype: DT_FLOAT
        tensor_shape {
          dim {
            size: 12
          }
        }
        float_val: 1.0
      }
    }
  }
}
node {
  name: "batch_normalization_3/moving_variance"
  op: "VarHandleOp"
  attr {
    key: "_class"
    value {
      list {
        s: "loc:@batch_normalization_3/moving_variance"
      }
    }
  }
  attr {
    key: "allowed_devices"
    value {
      list {
      }
    }
  }
  attr {
    key: "container"
    value {
      s: ""
    }
  }
  attr {
    key: "dtype"
    value {
      type: DT_FLOAT
    }
  }
  attr {
    key: "shape"
    value {
      shape {
        dim {
          size: 12
        }
      }
    }
  }
  attr {
    key: "shared_name"
    value {
      s: "batch_normalization_3/moving_variance"
    }
  }
}
node {
  name: "batch_normalization_3/moving_variance/IsInitialized/VarIsInitializedOp"
  op: "VarIsInitializedOp"
  input: "batch_normalization_3/moving_variance"
}
node {
  name: "batch_normalization_3/moving_variance/Assign"
  op: "AssignVariableOp"
  input: "batch_normalization_3/moving_variance"
  input: "batch_normalization_3/moving_variance/Initializer/ones"
  attr {
    key: "dtype"
    value {
      type: DT_FLOAT
    }
  }
  attr {
    key: "validate_shape"
    value {
      b: false
    }
  }
}
node {
  name: "batch_normalization_3/moving_variance/Read/ReadVariableOp"
  op: "ReadVariableOp"
  input: "batch_normalization_3/moving_variance"
  attr {
    key: "dtype"
    value {
      type: DT_FLOAT
    }
  }
}
node {
  name: "batch_normalization_3/cond"
  op: "If"
  input: "keras_learning_phase"
  input: "batch_normalization_3/gamma"
  input: "batch_normalization_3/beta"
  input: "batch_normalization_3/moving_mean"
  input: "batch_normalization_3/moving_variance"
  input: "stream_4/depthwise_conv2d_2/BiasAdd"
  attr {
    key: "Tcond"
    value {
      type: DT_BOOL
    }
  }
  attr {
    key: "Tin"
    value {
      list {
        type: DT_RESOURCE
        type: DT_RESOURCE
        type: DT_RESOURCE
        type: DT_RESOURCE
        type: DT_FLOAT
      }
    }
  }
  attr {
    key: "Tout"
    value {
      list {
        type: DT_FLOAT
        type: DT_FLOAT
        type: DT_FLOAT
        type: DT_VARIANT
        type: DT_VARIANT
        type: DT_VARIANT
        type: DT_VARIANT
        type: DT_VARIANT
        type: DT_VARIANT
        type: DT_VARIANT
      }
    }
  }
  attr {
    key: "_lower_using_switch_merge"
    value {
      b: true
    }
  }
  attr {
    key: "_read_only_resource_inputs"
    value {
      list {
        i: 1
        i: 2
        i: 3
        i: 4
      }
    }
  }
  attr {
    key: "else_branch"
    value {
      func {
        name: "batch_normalization_3_cond_false_432"
      }
    }
  }
  attr {
    key: "output_shapes"
    value {
      list {
        shape {
          dim {
            size: 11
          }
          dim {
            size: 8
          }
          dim {
            size: 1
          }
          dim {
            size: 12
          }
        }
        shape {
          dim {
            size: 12
          }
        }
        shape {
          dim {
            size: 12
          }
        }
        shape {
        }
        shape {
        }
        shape {
        }
        shape {
        }
        shape {
        }
        shape {
        }
        shape {
        }
      }
    }
  }
  attr {
    key: "then_branch"
    value {
      func {
        name: "batch_normalization_3_cond_true_431"
      }
    }
  }
}
node {
  name: "batch_normalization_3/cond/Identity"
  op: "Identity"
  input: "batch_normalization_3/cond"
  attr {
    key: "T"
    value {
      type: DT_FLOAT
    }
  }
}
node {
  name: "batch_normalization_3/cond/Identity_1"
  op: "Identity"
  input: "batch_normalization_3/cond:1"
  attr {
    key: "T"
    value {
      type: DT_FLOAT
    }
  }
}
node {
  name: "batch_normalization_3/cond/Identity_2"
  op: "Identity"
  input: "batch_normalization_3/cond:2"
  attr {
    key: "T"
    value {
      type: DT_FLOAT
    }
  }
}
node {
  name: "batch_normalization_3/cond/Identity_3"
  op: "Identity"
  input: "batch_normalization_3/cond:3"
  attr {
    key: "T"
    value {
      type: DT_VARIANT
    }
  }
}
node {
  name: "batch_normalization_3/cond/Identity_4"
  op: "Identity"
  input: "batch_normalization_3/cond:4"
  attr {
    key: "T"
    value {
      type: DT_VARIANT
    }
  }
}
node {
  name: "batch_normalization_3/cond/Identity_5"
  op: "Identity"
  input: "batch_normalization_3/cond:5"
  attr {
    key: "T"
    value {
      type: DT_VARIANT
    }
  }
}
node {
  name: "batch_normalization_3/cond/Identity_6"
  op: "Identity"
  input: "batch_normalization_3/cond:6"
  attr {
    key: "T"
    value {
      type: DT_VARIANT
    }
  }
}
node {
  name: "batch_normalization_3/cond/Identity_7"
  op: "Identity"
  input: "batch_normalization_3/cond:7"
  attr {
    key: "T"
    value {
      type: DT_VARIANT
    }
  }
}
node {
  name: "batch_normalization_3/cond/Identity_8"
  op: "Identity"
  input: "batch_normalization_3/cond:8"
  attr {
    key: "T"
    value {
      type: DT_VARIANT
    }
  }
}
node {
  name: "batch_normalization_3/cond/Identity_9"
  op: "Identity"
  input: "batch_normalization_3/cond:9"
  attr {
    key: "T"
    value {
      type: DT_VARIANT
    }
  }
}
node {
  name: "batch_normalization_3/cond_1"
  op: "StatelessIf"
  input: "keras_learning_phase"
  attr {
    key: "Tcond"
    value {
      type: DT_BOOL
    }
  }
  attr {
    key: "Tin"
    value {
      list {
      }
    }
  }
  attr {
    key: "Tout"
    value {
      list {
        type: DT_FLOAT
      }
    }
  }
  attr {
    key: "_lower_using_switch_merge"
    value {
      b: true
    }
  }
  attr {
    key: "_read_only_resource_inputs"
    value {
      list {
      }
    }
  }
  attr {
    key: "else_branch"
    value {
      func {
        name: "batch_normalization_3_cond_1_false_500"
      }
    }
  }
  attr {
    key: "output_shapes"
    value {
      list {
        shape {
        }
      }
    }
  }
  attr {
    key: "then_branch"
    value {
      func {
        name: "batch_normalization_3_cond_1_true_499"
      }
    }
  }
}
node {
  name: "batch_normalization_3/cond_1/Identity"
  op: "Identity"
  input: "batch_normalization_3/cond_1"
  attr {
    key: "T"
    value {
      type: DT_FLOAT
    }
  }
}
node {
  name: "batch_normalization_3/AssignMovingAvg/sub/x"
  op: "Const"
  attr {
    key: "_class"
    value {
      list {
        s: "loc:@batch_normalization_3/moving_mean"
      }
    }
  }
  attr {
    key: "dtype"
    value {
      type: DT_FLOAT
    }
  }
  attr {
    key: "value"
    value {
      tensor {
        dtype: DT_FLOAT
        tensor_shape {
        }
        float_val: 1.0
      }
    }
  }
}
node {
  name: "batch_normalization_3/AssignMovingAvg/sub"
  op: "Sub"
  input: "batch_normalization_3/AssignMovingAvg/sub/x"
  input: "batch_normalization_3/cond_1/Identity"
  attr {
    key: "T"
    value {
      type: DT_FLOAT
    }
  }
  attr {
    key: "_class"
    value {
      list {
        s: "loc:@batch_normalization_3/moving_mean"
      }
    }
  }
}
node {
  name: "batch_normalization_3/AssignMovingAvg/ReadVariableOp"
  op: "ReadVariableOp"
  input: "batch_normalization_3/moving_mean"
  attr {
    key: "dtype"
    value {
      type: DT_FLOAT
    }
  }
}
node {
  name: "batch_normalization_3/AssignMovingAvg/sub_1"
  op: "Sub"
  input: "batch_normalization_3/AssignMovingAvg/ReadVariableOp"
  input: "batch_normalization_3/cond/Identity_1"
  attr {
    key: "T"
    value {
      type: DT_FLOAT
    }
  }
  attr {
    key: "_class"
    value {
      list {
        s: "loc:@batch_normalization_3/moving_mean"
      }
    }
  }
}
node {
  name: "batch_normalization_3/AssignMovingAvg/mul"
  op: "Mul"
  input: "batch_normalization_3/AssignMovingAvg/sub_1"
  input: "batch_normalization_3/AssignMovingAvg/sub"
  attr {
    key: "T"
    value {
      type: DT_FLOAT
    }
  }
  attr {
    key: "_class"
    value {
      list {
        s: "loc:@batch_normalization_3/moving_mean"
      }
    }
  }
}
node {
  name: "batch_normalization_3/AssignMovingAvg/AssignSubVariableOp"
  op: "AssignSubVariableOp"
  input: "batch_normalization_3/moving_mean"
  input: "batch_normalization_3/AssignMovingAvg/mul"
  attr {
    key: "_class"
    value {
      list {
        s: "loc:@batch_normalization_3/moving_mean"
      }
    }
  }
  attr {
    key: "_has_manual_control_dependencies"
    value {
      b: true
    }
  }
  attr {
    key: "dtype"
    value {
      type: DT_FLOAT
    }
  }
}
node {
  name: "batch_normalization_3/AssignMovingAvg/ReadVariableOp_1"
  op: "ReadVariableOp"
  input: "batch_normalization_3/moving_mean"
  input: "^batch_normalization_3/AssignMovingAvg/AssignSubVariableOp"
  attr {
    key: "_class"
    value {
      list {
        s: "loc:@batch_normalization_3/moving_mean"
      }
    }
  }
  attr {
    key: "dtype"
    value {
      type: DT_FLOAT
    }
  }
}
node {
  name: "batch_normalization_3/AssignMovingAvg_1/sub/x"
  op: "Const"
  attr {
    key: "_class"
    value {
      list {
        s: "loc:@batch_normalization_3/moving_variance"
      }
    }
  }
  attr {
    key: "dtype"
    value {
      type: DT_FLOAT
    }
  }
  attr {
    key: "value"
    value {
      tensor {
        dtype: DT_FLOAT
        tensor_shape {
        }
        float_val: 1.0
      }
    }
  }
}
node {
  name: "batch_normalization_3/AssignMovingAvg_1/sub"
  op: "Sub"
  input: "batch_normalization_3/AssignMovingAvg_1/sub/x"
  input: "batch_normalization_3/cond_1/Identity"
  attr {
    key: "T"
    value {
      type: DT_FLOAT
    }
  }
  attr {
    key: "_class"
    value {
      list {
        s: "loc:@batch_normalization_3/moving_variance"
      }
    }
  }
}
node {
  name: "batch_normalization_3/AssignMovingAvg_1/ReadVariableOp"
  op: "ReadVariableOp"
  input: "batch_normalization_3/moving_variance"
  attr {
    key: "dtype"
    value {
      type: DT_FLOAT
    }
  }
}
node {
  name: "batch_normalization_3/AssignMovingAvg_1/sub_1"
  op: "Sub"
  input: "batch_normalization_3/AssignMovingAvg_1/ReadVariableOp"
  input: "batch_normalization_3/cond/Identity_2"
  attr {
    key: "T"
    value {
      type: DT_FLOAT
    }
  }
  attr {
    key: "_class"
    value {
      list {
        s: "loc:@batch_normalization_3/moving_variance"
      }
    }
  }
}
node {
  name: "batch_normalization_3/AssignMovingAvg_1/mul"
  op: "Mul"
  input: "batch_normalization_3/AssignMovingAvg_1/sub_1"
  input: "batch_normalization_3/AssignMovingAvg_1/sub"
  attr {
    key: "T"
    value {
      type: DT_FLOAT
    }
  }
  attr {
    key: "_class"
    value {
      list {
        s: "loc:@batch_normalization_3/moving_variance"
      }
    }
  }
}
node {
  name: "batch_normalization_3/AssignMovingAvg_1/AssignSubVariableOp"
  op: "AssignSubVariableOp"
  input: "batch_normalization_3/moving_variance"
  input: "batch_normalization_3/AssignMovingAvg_1/mul"
  attr {
    key: "_class"
    value {
      list {
        s: "loc:@batch_normalization_3/moving_variance"
      }
    }
  }
  attr {
    key: "_has_manual_control_dependencies"
    value {
      b: true
    }
  }
  attr {
    key: "dtype"
    value {
      type: DT_FLOAT
    }
  }
}
node {
  name: "batch_normalization_3/AssignMovingAvg_1/ReadVariableOp_1"
  op: "ReadVariableOp"
  input: "batch_normalization_3/moving_variance"
  input: "^batch_normalization_3/AssignMovingAvg_1/AssignSubVariableOp"
  attr {
    key: "_class"
    value {
      list {
        s: "loc:@batch_normalization_3/moving_variance"
      }
    }
  }
  attr {
    key: "dtype"
    value {
      type: DT_FLOAT
    }
  }
}
node {
  name: "activation_3/Relu"
  op: "Relu"
  input: "batch_normalization_3/cond/Identity"
  attr {
    key: "T"
    value {
      type: DT_FLOAT
    }
  }
}
node {
  name: "stream_5/depthwise_kernel/Initializer/stateless_random_uniform/shape"
  op: "Const"
  attr {
    key: "_class"
    value {
      list {
        s: "loc:@stream_5/depthwise_kernel"
      }
    }
  }
  attr {
    key: "dtype"
    value {
      type: DT_INT32
    }
  }
  attr {
    key: "value"
    value {
      tensor {
        dtype: DT_INT32
        tensor_shape {
          dim {
            size: 4
          }
        }
        tensor_content: "\004\000\000\000\001\000\000\000\014\000\000\000\002\000\000\000"
      }
    }
  }
}
node {
  name: "stream_5/depthwise_kernel/Initializer/stateless_random_uniform/min"
  op: "Const"
  attr {
    key: "_class"
    value {
      list {
        s: "loc:@stream_5/depthwise_kernel"
      }
    }
  }
  attr {
    key: "dtype"
    value {
      type: DT_FLOAT
    }
  }
  attr {
    key: "value"
    value {
      tensor {
        dtype: DT_FLOAT
        tensor_shape {
        }
        float_val: -0.32732683420181274
      }
    }
  }
}
node {
  name: "stream_5/depthwise_kernel/Initializer/stateless_random_uniform/max"
  op: "Const"
  attr {
    key: "_class"
    value {
      list {
        s: "loc:@stream_5/depthwise_kernel"
      }
    }
  }
  attr {
    key: "dtype"
    value {
      type: DT_FLOAT
    }
  }
  attr {
    key: "value"
    value {
      tensor {
        dtype: DT_FLOAT
        tensor_shape {
        }
        float_val: 0.32732683420181274
      }
    }
  }
}
node {
  name: "stream_5/depthwise_kernel/Initializer/stateless_random_uniform/StatelessRandomGetKeyCounter/seed"
  op: "Const"
  attr {
    key: "_class"
    value {
      list {
        s: "loc:@stream_5/depthwise_kernel"
      }
    }
  }
  attr {
    key: "dtype"
    value {
      type: DT_INT32
    }
  }
  attr {
    key: "value"
    value {
      tensor {
        dtype: DT_INT32
        tensor_shape {
          dim {
            size: 2
          }
        }
        tensor_content: "\003k\230\006\000\000\000\000"
      }
    }
  }
}
node {
  name: "stream_5/depthwise_kernel/Initializer/stateless_random_uniform/StatelessRandomGetKeyCounter"
  op: "StatelessRandomGetKeyCounter"
  input: "stream_5/depthwise_kernel/Initializer/stateless_random_uniform/StatelessRandomGetKeyCounter/seed"
  attr {
    key: "Tseed"
    value {
      type: DT_INT32
    }
  }
  attr {
    key: "_class"
    value {
      list {
        s: "loc:@stream_5/depthwise_kernel"
      }
    }
  }
}
node {
  name: "stream_5/depthwise_kernel/Initializer/stateless_random_uniform/StatelessRandomUniformV2/alg"
  op: "Const"
  attr {
    key: "_class"
    value {
      list {
        s: "loc:@stream_5/depthwise_kernel"
      }
    }
  }
  attr {
    key: "dtype"
    value {
      type: DT_INT32
    }
  }
  attr {
    key: "value"
    value {
      tensor {
        dtype: DT_INT32
        tensor_shape {
        }
        int_val: 3
      }
    }
  }
}
node {
  name: "stream_5/depthwise_kernel/Initializer/stateless_random_uniform/StatelessRandomUniformV2"
  op: "StatelessRandomUniformV2"
  input: "stream_5/depthwise_kernel/Initializer/stateless_random_uniform/shape"
  input: "stream_5/depthwise_kernel/Initializer/stateless_random_uniform/StatelessRandomGetKeyCounter"
  input: "stream_5/depthwise_kernel/Initializer/stateless_random_uniform/StatelessRandomGetKeyCounter:1"
  input: "stream_5/depthwise_kernel/Initializer/stateless_random_uniform/StatelessRandomUniformV2/alg"
  attr {
    key: "Tshape"
    value {
      type: DT_INT32
    }
  }
  attr {
    key: "_class"
    value {
      list {
        s: "loc:@stream_5/depthwise_kernel"
      }
    }
  }
  attr {
    key: "dtype"
    value {
      type: DT_FLOAT
    }
  }
}
node {
  name: "stream_5/depthwise_kernel/Initializer/stateless_random_uniform/sub"
  op: "Sub"
  input: "stream_5/depthwise_kernel/Initializer/stateless_random_uniform/max"
  input: "stream_5/depthwise_kernel/Initializer/stateless_random_uniform/min"
  attr {
    key: "T"
    value {
      type: DT_FLOAT
    }
  }
  attr {
    key: "_class"
    value {
      list {
        s: "loc:@stream_5/depthwise_kernel"
      }
    }
  }
}
node {
  name: "stream_5/depthwise_kernel/Initializer/stateless_random_uniform/mul"
  op: "Mul"
  input: "stream_5/depthwise_kernel/Initializer/stateless_random_uniform/StatelessRandomUniformV2"
  input: "stream_5/depthwise_kernel/Initializer/stateless_random_uniform/sub"
  attr {
    key: "T"
    value {
      type: DT_FLOAT
    }
  }
  attr {
    key: "_class"
    value {
      list {
        s: "loc:@stream_5/depthwise_kernel"
      }
    }
  }
}
node {
  name: "stream_5/depthwise_kernel/Initializer/stateless_random_uniform"
  op: "AddV2"
  input: "stream_5/depthwise_kernel/Initializer/stateless_random_uniform/mul"
  input: "stream_5/depthwise_kernel/Initializer/stateless_random_uniform/min"
  attr {
    key: "T"
    value {
      type: DT_FLOAT
    }
  }
  attr {
    key: "_class"
    value {
      list {
        s: "loc:@stream_5/depthwise_kernel"
      }
    }
  }
}
node {
  name: "stream_5/depthwise_kernel"
  op: "VarHandleOp"
  attr {
    key: "_class"
    value {
      list {
        s: "loc:@stream_5/depthwise_kernel"
      }
    }
  }
  attr {
    key: "allowed_devices"
    value {
      list {
      }
    }
  }
  attr {
    key: "container"
    value {
      s: ""
    }
  }
  attr {
    key: "dtype"
    value {
      type: DT_FLOAT
    }
  }
  attr {
    key: "shape"
    value {
      shape {
        dim {
          size: 4
        }
        dim {
          size: 1
        }
        dim {
          size: 12
        }
        dim {
          size: 2
        }
      }
    }
  }
  attr {
    key: "shared_name"
    value {
      s: "stream_5/depthwise_kernel"
    }
  }
}
node {
  name: "stream_5/depthwise_kernel/IsInitialized/VarIsInitializedOp"
  op: "VarIsInitializedOp"
  input: "stream_5/depthwise_kernel"
}
node {
  name: "stream_5/depthwise_kernel/Assign"
  op: "AssignVariableOp"
  input: "stream_5/depthwise_kernel"
  input: "stream_5/depthwise_kernel/Initializer/stateless_random_uniform"
  attr {
    key: "dtype"
    value {
      type: DT_FLOAT
    }
  }
  attr {
    key: "validate_shape"
    value {
      b: false
    }
  }
}
node {
  name: "stream_5/depthwise_kernel/Read/ReadVariableOp"
  op: "ReadVariableOp"
  input: "stream_5/depthwise_kernel"
  attr {
    key: "dtype"
    value {
      type: DT_FLOAT
    }
  }
}
node {
  name: "stream_5/bias/Initializer/zeros"
  op: "Const"
  attr {
    key: "_class"
    value {
      list {
        s: "loc:@stream_5/bias"
      }
    }
  }
  attr {
    key: "dtype"
    value {
      type: DT_FLOAT
    }
  }
  attr {
    key: "value"
    value {
      tensor {
        dtype: DT_FLOAT
        tensor_shape {
          dim {
            size: 24
          }
        }
        float_val: 0.0
      }
    }
  }
}
node {
  name: "stream_5/bias"
  op: "VarHandleOp"
  attr {
    key: "_class"
    value {
      list {
        s: "loc:@stream_5/bias"
      }
    }
  }
  attr {
    key: "allowed_devices"
    value {
      list {
      }
    }
  }
  attr {
    key: "container"
    value {
      s: ""
    }
  }
  attr {
    key: "dtype"
    value {
      type: DT_FLOAT
    }
  }
  attr {
    key: "shape"
    value {
      shape {
        dim {
          size: 24
        }
      }
    }
  }
  attr {
    key: "shared_name"
    value {
      s: "stream_5/bias"
    }
  }
}
node {
  name: "stream_5/bias/IsInitialized/VarIsInitializedOp"
  op: "VarIsInitializedOp"
  input: "stream_5/bias"
}
node {
  name: "stream_5/bias/Assign"
  op: "AssignVariableOp"
  input: "stream_5/bias"
  input: "stream_5/bias/Initializer/zeros"
  attr {
    key: "dtype"
    value {
      type: DT_FLOAT
    }
  }
  attr {
    key: "validate_shape"
    value {
      b: false
    }
  }
}
node {
  name: "stream_5/bias/Read/ReadVariableOp"
  op: "ReadVariableOp"
  input: "stream_5/bias"
  attr {
    key: "dtype"
    value {
      type: DT_FLOAT
    }
  }
}
node {
  name: "stream_5/depthwise_conv2d_3/depthwise/ReadVariableOp"
  op: "ReadVariableOp"
  input: "stream_5/depthwise_kernel"
  attr {
    key: "dtype"
    value {
      type: DT_FLOAT
    }
  }
}
node {
  name: "stream_5/depthwise_conv2d_3/depthwise/Shape"
  op: "Const"
  attr {
    key: "dtype"
    value {
      type: DT_INT32
    }
  }
  attr {
    key: "value"
    value {
      tensor {
        dtype: DT_INT32
        tensor_shape {
          dim {
            size: 4
          }
        }
        tensor_content: "\004\000\000\000\001\000\000\000\014\000\000\000\002\000\000\000"
      }
    }
  }
}
node {
  name: "stream_5/depthwise_conv2d_3/depthwise/dilation_rate"
  op: "Const"
  attr {
    key: "dtype"
    value {
      type: DT_INT32
    }
  }
  attr {
    key: "value"
    value {
      tensor {
        dtype: DT_INT32
        tensor_shape {
          dim {
            size: 2
          }
        }
        tensor_content: "\001\000\000\000\001\000\000\000"
      }
    }
  }
}
node {
  name: "stream_5/depthwise_conv2d_3/depthwise"
  op: "DepthwiseConv2dNative"
  input: "activation_3/Relu"
  input: "stream_5/depthwise_conv2d_3/depthwise/ReadVariableOp"
  attr {
    key: "T"
    value {
      type: DT_FLOAT
    }
  }
  attr {
    key: "data_format"
    value {
      s: "NHWC"
    }
  }
  attr {
    key: "dilations"
    value {
      list {
        i: 1
        i: 1
        i: 1
        i: 1
      }
    }
  }
  attr {
    key: "explicit_paddings"
    value {
      list {
      }
    }
  }
  attr {
    key: "padding"
    value {
      s: "VALID"
    }
  }
  attr {
    key: "strides"
    value {
      list {
        i: 1
        i: 3
        i: 3
        i: 1
      }
    }
  }
}
node {
  name: "stream_5/depthwise_conv2d_3/BiasAdd/ReadVariableOp"
  op: "ReadVariableOp"
  input: "stream_5/bias"
  attr {
    key: "dtype"
    value {
      type: DT_FLOAT
    }
  }
}
node {
  name: "stream_5/depthwise_conv2d_3/BiasAdd"
  op: "BiasAdd"
  input: "stream_5/depthwise_conv2d_3/depthwise"
  input: "stream_5/depthwise_conv2d_3/BiasAdd/ReadVariableOp"
  attr {
    key: "T"
    value {
      type: DT_FLOAT
    }
  }
  attr {
    key: "data_format"
    value {
      s: "NHWC"
    }
  }
}
node {
  name: "batch_normalization_4/gamma/Initializer/ones"
  op: "Const"
  attr {
    key: "_class"
    value {
      list {
        s: "loc:@batch_normalization_4/gamma"
      }
    }
  }
  attr {
    key: "dtype"
    value {
      type: DT_FLOAT
    }
  }
  attr {
    key: "value"
    value {
      tensor {
        dtype: DT_FLOAT
        tensor_shape {
          dim {
            size: 24
          }
        }
        float_val: 1.0
      }
    }
  }
}
node {
  name: "batch_normalization_4/gamma"
  op: "VarHandleOp"
  attr {
    key: "_class"
    value {
      list {
        s: "loc:@batch_normalization_4/gamma"
      }
    }
  }
  attr {
    key: "allowed_devices"
    value {
      list {
      }
    }
  }
  attr {
    key: "container"
    value {
      s: ""
    }
  }
  attr {
    key: "dtype"
    value {
      type: DT_FLOAT
    }
  }
  attr {
    key: "shape"
    value {
      shape {
        dim {
          size: 24
        }
      }
    }
  }
  attr {
    key: "shared_name"
    value {
      s: "batch_normalization_4/gamma"
    }
  }
}
node {
  name: "batch_normalization_4/gamma/IsInitialized/VarIsInitializedOp"
  op: "VarIsInitializedOp"
  input: "batch_normalization_4/gamma"
}
node {
  name: "batch_normalization_4/gamma/Assign"
  op: "AssignVariableOp"
  input: "batch_normalization_4/gamma"
  input: "batch_normalization_4/gamma/Initializer/ones"
  attr {
    key: "dtype"
    value {
      type: DT_FLOAT
    }
  }
  attr {
    key: "validate_shape"
    value {
      b: false
    }
  }
}
node {
  name: "batch_normalization_4/gamma/Read/ReadVariableOp"
  op: "ReadVariableOp"
  input: "batch_normalization_4/gamma"
  attr {
    key: "dtype"
    value {
      type: DT_FLOAT
    }
  }
}
node {
  name: "batch_normalization_4/beta/Initializer/zeros"
  op: "Const"
  attr {
    key: "_class"
    value {
      list {
        s: "loc:@batch_normalization_4/beta"
      }
    }
  }
  attr {
    key: "dtype"
    value {
      type: DT_FLOAT
    }
  }
  attr {
    key: "value"
    value {
      tensor {
        dtype: DT_FLOAT
        tensor_shape {
          dim {
            size: 24
          }
        }
        float_val: 0.0
      }
    }
  }
}
node {
  name: "batch_normalization_4/beta"
  op: "VarHandleOp"
  attr {
    key: "_class"
    value {
      list {
        s: "loc:@batch_normalization_4/beta"
      }
    }
  }
  attr {
    key: "allowed_devices"
    value {
      list {
      }
    }
  }
  attr {
    key: "container"
    value {
      s: ""
    }
  }
  attr {
    key: "dtype"
    value {
      type: DT_FLOAT
    }
  }
  attr {
    key: "shape"
    value {
      shape {
        dim {
          size: 24
        }
      }
    }
  }
  attr {
    key: "shared_name"
    value {
      s: "batch_normalization_4/beta"
    }
  }
}
node {
  name: "batch_normalization_4/beta/IsInitialized/VarIsInitializedOp"
  op: "VarIsInitializedOp"
  input: "batch_normalization_4/beta"
}
node {
  name: "batch_normalization_4/beta/Assign"
  op: "AssignVariableOp"
  input: "batch_normalization_4/beta"
  input: "batch_normalization_4/beta/Initializer/zeros"
  attr {
    key: "dtype"
    value {
      type: DT_FLOAT
    }
  }
  attr {
    key: "validate_shape"
    value {
      b: false
    }
  }
}
node {
  name: "batch_normalization_4/beta/Read/ReadVariableOp"
  op: "ReadVariableOp"
  input: "batch_normalization_4/beta"
  attr {
    key: "dtype"
    value {
      type: DT_FLOAT
    }
  }
}
node {
  name: "batch_normalization_4/moving_mean/Initializer/zeros"
  op: "Const"
  attr {
    key: "_class"
    value {
      list {
        s: "loc:@batch_normalization_4/moving_mean"
      }
    }
  }
  attr {
    key: "dtype"
    value {
      type: DT_FLOAT
    }
  }
  attr {
    key: "value"
    value {
      tensor {
        dtype: DT_FLOAT
        tensor_shape {
          dim {
            size: 24
          }
        }
        float_val: 0.0
      }
    }
  }
}
node {
  name: "batch_normalization_4/moving_mean"
  op: "VarHandleOp"
  attr {
    key: "_class"
    value {
      list {
        s: "loc:@batch_normalization_4/moving_mean"
      }
    }
  }
  attr {
    key: "allowed_devices"
    value {
      list {
      }
    }
  }
  attr {
    key: "container"
    value {
      s: ""
    }
  }
  attr {
    key: "dtype"
    value {
      type: DT_FLOAT
    }
  }
  attr {
    key: "shape"
    value {
      shape {
        dim {
          size: 24
        }
      }
    }
  }
  attr {
    key: "shared_name"
    value {
      s: "batch_normalization_4/moving_mean"
    }
  }
}
node {
  name: "batch_normalization_4/moving_mean/IsInitialized/VarIsInitializedOp"
  op: "VarIsInitializedOp"
  input: "batch_normalization_4/moving_mean"
}
node {
  name: "batch_normalization_4/moving_mean/Assign"
  op: "AssignVariableOp"
  input: "batch_normalization_4/moving_mean"
  input: "batch_normalization_4/moving_mean/Initializer/zeros"
  attr {
    key: "dtype"
    value {
      type: DT_FLOAT
    }
  }
  attr {
    key: "validate_shape"
    value {
      b: false
    }
  }
}
node {
  name: "batch_normalization_4/moving_mean/Read/ReadVariableOp"
  op: "ReadVariableOp"
  input: "batch_normalization_4/moving_mean"
  attr {
    key: "dtype"
    value {
      type: DT_FLOAT
    }
  }
}
node {
  name: "batch_normalization_4/moving_variance/Initializer/ones"
  op: "Const"
  attr {
    key: "_class"
    value {
      list {
        s: "loc:@batch_normalization_4/moving_variance"
      }
    }
  }
  attr {
    key: "dtype"
    value {
      type: DT_FLOAT
    }
  }
  attr {
    key: "value"
    value {
      tensor {
        dtype: DT_FLOAT
        tensor_shape {
          dim {
            size: 24
          }
        }
        float_val: 1.0
      }
    }
  }
}
node {
  name: "batch_normalization_4/moving_variance"
  op: "VarHandleOp"
  attr {
    key: "_class"
    value {
      list {
        s: "loc:@batch_normalization_4/moving_variance"
      }
    }
  }
  attr {
    key: "allowed_devices"
    value {
      list {
      }
    }
  }
  attr {
    key: "container"
    value {
      s: ""
    }
  }
  attr {
    key: "dtype"
    value {
      type: DT_FLOAT
    }
  }
  attr {
    key: "shape"
    value {
      shape {
        dim {
          size: 24
        }
      }
    }
  }
  attr {
    key: "shared_name"
    value {
      s: "batch_normalization_4/moving_variance"
    }
  }
}
node {
  name: "batch_normalization_4/moving_variance/IsInitialized/VarIsInitializedOp"
  op: "VarIsInitializedOp"
  input: "batch_normalization_4/moving_variance"
}
node {
  name: "batch_normalization_4/moving_variance/Assign"
  op: "AssignVariableOp"
  input: "batch_normalization_4/moving_variance"
  input: "batch_normalization_4/moving_variance/Initializer/ones"
  attr {
    key: "dtype"
    value {
      type: DT_FLOAT
    }
  }
  attr {
    key: "validate_shape"
    value {
      b: false
    }
  }
}
node {
  name: "batch_normalization_4/moving_variance/Read/ReadVariableOp"
  op: "ReadVariableOp"
  input: "batch_normalization_4/moving_variance"
  attr {
    key: "dtype"
    value {
      type: DT_FLOAT
    }
  }
}
node {
  name: "batch_normalization_4/cond"
  op: "If"
  input: "keras_learning_phase"
  input: "batch_normalization_4/gamma"
  input: "batch_normalization_4/beta"
  input: "batch_normalization_4/moving_mean"
  input: "batch_normalization_4/moving_variance"
  input: "stream_5/depthwise_conv2d_3/BiasAdd"
  attr {
    key: "Tcond"
    value {
      type: DT_BOOL
    }
  }
  attr {
    key: "Tin"
    value {
      list {
        type: DT_RESOURCE
        type: DT_RESOURCE
        type: DT_RESOURCE
        type: DT_RESOURCE
        type: DT_FLOAT
      }
    }
  }
  attr {
    key: "Tout"
    value {
      list {
        type: DT_FLOAT
        type: DT_FLOAT
        type: DT_FLOAT
        type: DT_VARIANT
        type: DT_VARIANT
        type: DT_VARIANT
        type: DT_VARIANT
        type: DT_VARIANT
        type: DT_VARIANT
        type: DT_VARIANT
      }
    }
  }
  attr {
    key: "_lower_using_switch_merge"
    value {
      b: true
    }
  }
  attr {
    key: "_read_only_resource_inputs"
    value {
      list {
        i: 1
        i: 2
        i: 3
        i: 4
      }
    }
  }
  attr {
    key: "else_branch"
    value {
      func {
        name: "batch_normalization_4_cond_false_561"
      }
    }
  }
  attr {
    key: "output_shapes"
    value {
      list {
        shape {
          dim {
            size: 11
          }
          dim {
            size: 2
          }
          dim {
            size: 1
          }
          dim {
            size: 24
          }
        }
        shape {
          dim {
            size: 24
          }
        }
        shape {
          dim {
            size: 24
          }
        }
        shape {
        }
        shape {
        }
        shape {
        }
        shape {
        }
        shape {
        }
        shape {
        }
        shape {
        }
      }
    }
  }
  attr {
    key: "then_branch"
    value {
      func {
        name: "batch_normalization_4_cond_true_560"
      }
    }
  }
}
node {
  name: "batch_normalization_4/cond/Identity"
  op: "Identity"
  input: "batch_normalization_4/cond"
  attr {
    key: "T"
    value {
      type: DT_FLOAT
    }
  }
}
node {
  name: "batch_normalization_4/cond/Identity_1"
  op: "Identity"
  input: "batch_normalization_4/cond:1"
  attr {
    key: "T"
    value {
      type: DT_FLOAT
    }
  }
}
node {
  name: "batch_normalization_4/cond/Identity_2"
  op: "Identity"
  input: "batch_normalization_4/cond:2"
  attr {
    key: "T"
    value {
      type: DT_FLOAT
    }
  }
}
node {
  name: "batch_normalization_4/cond/Identity_3"
  op: "Identity"
  input: "batch_normalization_4/cond:3"
  attr {
    key: "T"
    value {
      type: DT_VARIANT
    }
  }
}
node {
  name: "batch_normalization_4/cond/Identity_4"
  op: "Identity"
  input: "batch_normalization_4/cond:4"
  attr {
    key: "T"
    value {
      type: DT_VARIANT
    }
  }
}
node {
  name: "batch_normalization_4/cond/Identity_5"
  op: "Identity"
  input: "batch_normalization_4/cond:5"
  attr {
    key: "T"
    value {
      type: DT_VARIANT
    }
  }
}
node {
  name: "batch_normalization_4/cond/Identity_6"
  op: "Identity"
  input: "batch_normalization_4/cond:6"
  attr {
    key: "T"
    value {
      type: DT_VARIANT
    }
  }
}
node {
  name: "batch_normalization_4/cond/Identity_7"
  op: "Identity"
  input: "batch_normalization_4/cond:7"
  attr {
    key: "T"
    value {
      type: DT_VARIANT
    }
  }
}
node {
  name: "batch_normalization_4/cond/Identity_8"
  op: "Identity"
  input: "batch_normalization_4/cond:8"
  attr {
    key: "T"
    value {
      type: DT_VARIANT
    }
  }
}
node {
  name: "batch_normalization_4/cond/Identity_9"
  op: "Identity"
  input: "batch_normalization_4/cond:9"
  attr {
    key: "T"
    value {
      type: DT_VARIANT
    }
  }
}
node {
  name: "batch_normalization_4/cond_1"
  op: "StatelessIf"
  input: "keras_learning_phase"
  attr {
    key: "Tcond"
    value {
      type: DT_BOOL
    }
  }
  attr {
    key: "Tin"
    value {
      list {
      }
    }
  }
  attr {
    key: "Tout"
    value {
      list {
        type: DT_FLOAT
      }
    }
  }
  attr {
    key: "_lower_using_switch_merge"
    value {
      b: true
    }
  }
  attr {
    key: "_read_only_resource_inputs"
    value {
      list {
      }
    }
  }
  attr {
    key: "else_branch"
    value {
      func {
        name: "batch_normalization_4_cond_1_false_629"
      }
    }
  }
  attr {
    key: "output_shapes"
    value {
      list {
        shape {
        }
      }
    }
  }
  attr {
    key: "then_branch"
    value {
      func {
        name: "batch_normalization_4_cond_1_true_628"
      }
    }
  }
}
node {
  name: "batch_normalization_4/cond_1/Identity"
  op: "Identity"
  input: "batch_normalization_4/cond_1"
  attr {
    key: "T"
    value {
      type: DT_FLOAT
    }
  }
}
node {
  name: "batch_normalization_4/AssignMovingAvg/sub/x"
  op: "Const"
  attr {
    key: "_class"
    value {
      list {
        s: "loc:@batch_normalization_4/moving_mean"
      }
    }
  }
  attr {
    key: "dtype"
    value {
      type: DT_FLOAT
    }
  }
  attr {
    key: "value"
    value {
      tensor {
        dtype: DT_FLOAT
        tensor_shape {
        }
        float_val: 1.0
      }
    }
  }
}
node {
  name: "batch_normalization_4/AssignMovingAvg/sub"
  op: "Sub"
  input: "batch_normalization_4/AssignMovingAvg/sub/x"
  input: "batch_normalization_4/cond_1/Identity"
  attr {
    key: "T"
    value {
      type: DT_FLOAT
    }
  }
  attr {
    key: "_class"
    value {
      list {
        s: "loc:@batch_normalization_4/moving_mean"
      }
    }
  }
}
node {
  name: "batch_normalization_4/AssignMovingAvg/ReadVariableOp"
  op: "ReadVariableOp"
  input: "batch_normalization_4/moving_mean"
  attr {
    key: "dtype"
    value {
      type: DT_FLOAT
    }
  }
}
node {
  name: "batch_normalization_4/AssignMovingAvg/sub_1"
  op: "Sub"
  input: "batch_normalization_4/AssignMovingAvg/ReadVariableOp"
  input: "batch_normalization_4/cond/Identity_1"
  attr {
    key: "T"
    value {
      type: DT_FLOAT
    }
  }
  attr {
    key: "_class"
    value {
      list {
        s: "loc:@batch_normalization_4/moving_mean"
      }
    }
  }
}
node {
  name: "batch_normalization_4/AssignMovingAvg/mul"
  op: "Mul"
  input: "batch_normalization_4/AssignMovingAvg/sub_1"
  input: "batch_normalization_4/AssignMovingAvg/sub"
  attr {
    key: "T"
    value {
      type: DT_FLOAT
    }
  }
  attr {
    key: "_class"
    value {
      list {
        s: "loc:@batch_normalization_4/moving_mean"
      }
    }
  }
}
node {
  name: "batch_normalization_4/AssignMovingAvg/AssignSubVariableOp"
  op: "AssignSubVariableOp"
  input: "batch_normalization_4/moving_mean"
  input: "batch_normalization_4/AssignMovingAvg/mul"
  attr {
    key: "_class"
    value {
      list {
        s: "loc:@batch_normalization_4/moving_mean"
      }
    }
  }
  attr {
    key: "_has_manual_control_dependencies"
    value {
      b: true
    }
  }
  attr {
    key: "dtype"
    value {
      type: DT_FLOAT
    }
  }
}
node {
  name: "batch_normalization_4/AssignMovingAvg/ReadVariableOp_1"
  op: "ReadVariableOp"
  input: "batch_normalization_4/moving_mean"
  input: "^batch_normalization_4/AssignMovingAvg/AssignSubVariableOp"
  attr {
    key: "_class"
    value {
      list {
        s: "loc:@batch_normalization_4/moving_mean"
      }
    }
  }
  attr {
    key: "dtype"
    value {
      type: DT_FLOAT
    }
  }
}
node {
  name: "batch_normalization_4/AssignMovingAvg_1/sub/x"
  op: "Const"
  attr {
    key: "_class"
    value {
      list {
        s: "loc:@batch_normalization_4/moving_variance"
      }
    }
  }
  attr {
    key: "dtype"
    value {
      type: DT_FLOAT
    }
  }
  attr {
    key: "value"
    value {
      tensor {
        dtype: DT_FLOAT
        tensor_shape {
        }
        float_val: 1.0
      }
    }
  }
}
node {
  name: "batch_normalization_4/AssignMovingAvg_1/sub"
  op: "Sub"
  input: "batch_normalization_4/AssignMovingAvg_1/sub/x"
  input: "batch_normalization_4/cond_1/Identity"
  attr {
    key: "T"
    value {
      type: DT_FLOAT
    }
  }
  attr {
    key: "_class"
    value {
      list {
        s: "loc:@batch_normalization_4/moving_variance"
      }
    }
  }
}
node {
  name: "batch_normalization_4/AssignMovingAvg_1/ReadVariableOp"
  op: "ReadVariableOp"
  input: "batch_normalization_4/moving_variance"
  attr {
    key: "dtype"
    value {
      type: DT_FLOAT
    }
  }
}
node {
  name: "batch_normalization_4/AssignMovingAvg_1/sub_1"
  op: "Sub"
  input: "batch_normalization_4/AssignMovingAvg_1/ReadVariableOp"
  input: "batch_normalization_4/cond/Identity_2"
  attr {
    key: "T"
    value {
      type: DT_FLOAT
    }
  }
  attr {
    key: "_class"
    value {
      list {
        s: "loc:@batch_normalization_4/moving_variance"
      }
    }
  }
}
node {
  name: "batch_normalization_4/AssignMovingAvg_1/mul"
  op: "Mul"
  input: "batch_normalization_4/AssignMovingAvg_1/sub_1"
  input: "batch_normalization_4/AssignMovingAvg_1/sub"
  attr {
    key: "T"
    value {
      type: DT_FLOAT
    }
  }
  attr {
    key: "_class"
    value {
      list {
        s: "loc:@batch_normalization_4/moving_variance"
      }
    }
  }
}
node {
  name: "batch_normalization_4/AssignMovingAvg_1/AssignSubVariableOp"
  op: "AssignSubVariableOp"
  input: "batch_normalization_4/moving_variance"
  input: "batch_normalization_4/AssignMovingAvg_1/mul"
  attr {
    key: "_class"
    value {
      list {
        s: "loc:@batch_normalization_4/moving_variance"
      }
    }
  }
  attr {
    key: "_has_manual_control_dependencies"
    value {
      b: true
    }
  }
  attr {
    key: "dtype"
    value {
      type: DT_FLOAT
    }
  }
}
node {
  name: "batch_normalization_4/AssignMovingAvg_1/ReadVariableOp_1"
  op: "ReadVariableOp"
  input: "batch_normalization_4/moving_variance"
  input: "^batch_normalization_4/AssignMovingAvg_1/AssignSubVariableOp"
  attr {
    key: "_class"
    value {
      list {
        s: "loc:@batch_normalization_4/moving_variance"
      }
    }
  }
  attr {
    key: "dtype"
    value {
      type: DT_FLOAT
    }
  }
}
node {
  name: "activation_4/Relu"
  op: "Relu"
  input: "batch_normalization_4/cond/Identity"
  attr {
    key: "T"
    value {
      type: DT_FLOAT
    }
  }
}
node {
  name: "dropout/cond"
  op: "If"
  input: "keras_learning_phase"
  input: "activation_4/Relu"
  attr {
    key: "Tcond"
    value {
      type: DT_BOOL
    }
  }
  attr {
    key: "Tin"
    value {
      list {
        type: DT_FLOAT
      }
    }
  }
  attr {
    key: "Tout"
    value {
      list {
        type: DT_FLOAT
        type: DT_VARIANT
        type: DT_VARIANT
        type: DT_VARIANT
        type: DT_VARIANT
        type: DT_VARIANT
        type: DT_VARIANT
        type: DT_VARIANT
      }
    }
  }
  attr {
    key: "_lower_using_switch_merge"
    value {
      b: true
    }
  }
  attr {
    key: "_read_only_resource_inputs"
    value {
      list {
      }
    }
  }
  attr {
    key: "else_branch"
    value {
      func {
        name: "dropout_cond_false_650"
      }
    }
  }
  attr {
    key: "output_shapes"
    value {
      list {
        shape {
          dim {
            size: 11
          }
          dim {
            size: 2
          }
          dim {
            size: 1
          }
          dim {
            size: 24
          }
        }
        shape {
        }
        shape {
        }
        shape {
        }
        shape {
        }
        shape {
        }
        shape {
        }
        shape {
        }
      }
    }
  }
  attr {
    key: "then_branch"
    value {
      func {
        name: "dropout_cond_true_649"
      }
    }
  }
}
node {
  name: "dropout/cond/Identity"
  op: "Identity"
  input: "dropout/cond"
  attr {
    key: "T"
    value {
      type: DT_FLOAT
    }
  }
}
node {
  name: "dropout/cond/Identity_1"
  op: "Identity"
  input: "dropout/cond:1"
  attr {
    key: "T"
    value {
      type: DT_VARIANT
    }
  }
}
node {
  name: "dropout/cond/Identity_2"
  op: "Identity"
  input: "dropout/cond:2"
  attr {
    key: "T"
    value {
      type: DT_VARIANT
    }
  }
}
node {
  name: "dropout/cond/Identity_3"
  op: "Identity"
  input: "dropout/cond:3"
  attr {
    key: "T"
    value {
      type: DT_VARIANT
    }
  }
}
node {
  name: "dropout/cond/Identity_4"
  op: "Identity"
  input: "dropout/cond:4"
  attr {
    key: "T"
    value {
      type: DT_VARIANT
    }
  }
}
node {
  name: "dropout/cond/Identity_5"
  op: "Identity"
  input: "dropout/cond:5"
  attr {
    key: "T"
    value {
      type: DT_VARIANT
    }
  }
}
node {
  name: "dropout/cond/Identity_6"
  op: "Identity"
  input: "dropout/cond:6"
  attr {
    key: "T"
    value {
      type: DT_VARIANT
    }
  }
}
node {
  name: "dropout/cond/Identity_7"
  op: "Identity"
  input: "dropout/cond:7"
  attr {
    key: "T"
    value {
      type: DT_VARIANT
    }
  }
}
node {
  name: "stream_6/flatten/Const"
  op: "Const"
  attr {
    key: "dtype"
    value {
      type: DT_INT32
    }
  }
  attr {
    key: "value"
    value {
      tensor {
        dtype: DT_INT32
        tensor_shape {
          dim {
            size: 2
          }
        }
        tensor_content: "\377\377\377\3770\000\000\000"
      }
    }
  }
}
node {
  name: "stream_6/flatten/Reshape"
  op: "Reshape"
  input: "dropout/cond/Identity"
  input: "stream_6/flatten/Const"
  attr {
    key: "T"
    value {
      type: DT_FLOAT
    }
  }
  attr {
    key: "Tshape"
    value {
      type: DT_INT32
    }
  }
}
node {
  name: "dense/kernel/Initializer/stateless_random_uniform/shape"
  op: "Const"
  attr {
    key: "_class"
    value {
      list {
        s: "loc:@dense/kernel"
      }
    }
  }
  attr {
    key: "dtype"
    value {
      type: DT_INT32
    }
  }
  attr {
    key: "value"
    value {
      tensor {
        dtype: DT_INT32
        tensor_shape {
          dim {
            size: 2
          }
        }
        tensor_content: "0\000\000\000\n\000\000\000"
      }
    }
  }
}
node {
  name: "dense/kernel/Initializer/stateless_random_uniform/min"
  op: "Const"
  attr {
    key: "_class"
    value {
      list {
        s: "loc:@dense/kernel"
      }
    }
  }
  attr {
    key: "dtype"
    value {
      type: DT_FLOAT
    }
  }
  attr {
    key: "value"
    value {
      tensor {
        dtype: DT_FLOAT
        tensor_shape {
        }
        float_val: -0.3216337561607361
      }
    }
  }
}
node {
  name: "dense/kernel/Initializer/stateless_random_uniform/max"
  op: "Const"
  attr {
    key: "_class"
    value {
      list {
        s: "loc:@dense/kernel"
      }
    }
  }
  attr {
    key: "dtype"
    value {
      type: DT_FLOAT
    }
  }
  attr {
    key: "value"
    value {
      tensor {
        dtype: DT_FLOAT
        tensor_shape {
        }
        float_val: 0.3216337561607361
      }
    }
  }
}
node {
  name: "dense/kernel/Initializer/stateless_random_uniform/StatelessRandomGetKeyCounter/seed"
  op: "Const"
  attr {
    key: "_class"
    value {
      list {
        s: "loc:@dense/kernel"
      }
    }
  }
  attr {
    key: "dtype"
    value {
      type: DT_INT32
    }
  }
  attr {
    key: "value"
    value {
      tensor {
        dtype: DT_INT32
        tensor_shape {
          dim {
            size: 2
          }
        }
        tensor_content: "\230\303\237\n\000\000\000\000"
      }
    }
  }
}
node {
  name: "dense/kernel/Initializer/stateless_random_uniform/StatelessRandomGetKeyCounter"
  op: "StatelessRandomGetKeyCounter"
  input: "dense/kernel/Initializer/stateless_random_uniform/StatelessRandomGetKeyCounter/seed"
  attr {
    key: "Tseed"
    value {
      type: DT_INT32
    }
  }
  attr {
    key: "_class"
    value {
      list {
        s: "loc:@dense/kernel"
      }
    }
  }
}
node {
  name: "dense/kernel/Initializer/stateless_random_uniform/StatelessRandomUniformV2/alg"
  op: "Const"
  attr {
    key: "_class"
    value {
      list {
        s: "loc:@dense/kernel"
      }
    }
  }
  attr {
    key: "dtype"
    value {
      type: DT_INT32
    }
  }
  attr {
    key: "value"
    value {
      tensor {
        dtype: DT_INT32
        tensor_shape {
        }
        int_val: 3
      }
    }
  }
}
node {
  name: "dense/kernel/Initializer/stateless_random_uniform/StatelessRandomUniformV2"
  op: "StatelessRandomUniformV2"
  input: "dense/kernel/Initializer/stateless_random_uniform/shape"
  input: "dense/kernel/Initializer/stateless_random_uniform/StatelessRandomGetKeyCounter"
  input: "dense/kernel/Initializer/stateless_random_uniform/StatelessRandomGetKeyCounter:1"
  input: "dense/kernel/Initializer/stateless_random_uniform/StatelessRandomUniformV2/alg"
  attr {
    key: "Tshape"
    value {
      type: DT_INT32
    }
  }
  attr {
    key: "_class"
    value {
      list {
        s: "loc:@dense/kernel"
      }
    }
  }
  attr {
    key: "dtype"
    value {
      type: DT_FLOAT
    }
  }
}
node {
  name: "dense/kernel/Initializer/stateless_random_uniform/sub"
  op: "Sub"
  input: "dense/kernel/Initializer/stateless_random_uniform/max"
  input: "dense/kernel/Initializer/stateless_random_uniform/min"
  attr {
    key: "T"
    value {
      type: DT_FLOAT
    }
  }
  attr {
    key: "_class"
    value {
      list {
        s: "loc:@dense/kernel"
      }
    }
  }
}
node {
  name: "dense/kernel/Initializer/stateless_random_uniform/mul"
  op: "Mul"
  input: "dense/kernel/Initializer/stateless_random_uniform/StatelessRandomUniformV2"
  input: "dense/kernel/Initializer/stateless_random_uniform/sub"
  attr {
    key: "T"
    value {
      type: DT_FLOAT
    }
  }
  attr {
    key: "_class"
    value {
      list {
        s: "loc:@dense/kernel"
      }
    }
  }
}
node {
  name: "dense/kernel/Initializer/stateless_random_uniform"
  op: "AddV2"
  input: "dense/kernel/Initializer/stateless_random_uniform/mul"
  input: "dense/kernel/Initializer/stateless_random_uniform/min"
  attr {
    key: "T"
    value {
      type: DT_FLOAT
    }
  }
  attr {
    key: "_class"
    value {
      list {
        s: "loc:@dense/kernel"
      }
    }
  }
}
node {
  name: "dense/kernel"
  op: "VarHandleOp"
  attr {
    key: "_class"
    value {
      list {
        s: "loc:@dense/kernel"
      }
    }
  }
  attr {
    key: "allowed_devices"
    value {
      list {
      }
    }
  }
  attr {
    key: "container"
    value {
      s: ""
    }
  }
  attr {
    key: "dtype"
    value {
      type: DT_FLOAT
    }
  }
  attr {
    key: "shape"
    value {
      shape {
        dim {
          size: 48
        }
        dim {
          size: 10
        }
      }
    }
  }
  attr {
    key: "shared_name"
    value {
      s: "dense/kernel"
    }
  }
}
node {
  name: "dense/kernel/IsInitialized/VarIsInitializedOp"
  op: "VarIsInitializedOp"
  input: "dense/kernel"
}
node {
  name: "dense/kernel/Assign"
  op: "AssignVariableOp"
  input: "dense/kernel"
  input: "dense/kernel/Initializer/stateless_random_uniform"
  attr {
    key: "dtype"
    value {
      type: DT_FLOAT
    }
  }
  attr {
    key: "validate_shape"
    value {
      b: false
    }
  }
}
node {
  name: "dense/kernel/Read/ReadVariableOp"
  op: "ReadVariableOp"
  input: "dense/kernel"
  attr {
    key: "dtype"
    value {
      type: DT_FLOAT
    }
  }
}
node {
  name: "dense/bias/Initializer/zeros"
  op: "Const"
  attr {
    key: "_class"
    value {
      list {
        s: "loc:@dense/bias"
      }
    }
  }
  attr {
    key: "dtype"
    value {
      type: DT_FLOAT
    }
  }
  attr {
    key: "value"
    value {
      tensor {
        dtype: DT_FLOAT
        tensor_shape {
          dim {
            size: 10
          }
        }
        float_val: 0.0
      }
    }
  }
}
node {
  name: "dense/bias"
  op: "VarHandleOp"
  attr {
    key: "_class"
    value {
      list {
        s: "loc:@dense/bias"
      }
    }
  }
  attr {
    key: "allowed_devices"
    value {
      list {
      }
    }
  }
  attr {
    key: "container"
    value {
      s: ""
    }
  }
  attr {
    key: "dtype"
    value {
      type: DT_FLOAT
    }
  }
  attr {
    key: "shape"
    value {
      shape {
        dim {
          size: 10
        }
      }
    }
  }
  attr {
    key: "shared_name"
    value {
      s: "dense/bias"
    }
  }
}
node {
  name: "dense/bias/IsInitialized/VarIsInitializedOp"
  op: "VarIsInitializedOp"
  input: "dense/bias"
}
node {
  name: "dense/bias/Assign"
  op: "AssignVariableOp"
  input: "dense/bias"
  input: "dense/bias/Initializer/zeros"
  attr {
    key: "dtype"
    value {
      type: DT_FLOAT
    }
  }
  attr {
    key: "validate_shape"
    value {
      b: false
    }
  }
}
node {
  name: "dense/bias/Read/ReadVariableOp"
  op: "ReadVariableOp"
  input: "dense/bias"
  attr {
    key: "dtype"
    value {
      type: DT_FLOAT
    }
  }
}
node {
  name: "dense/MatMul/ReadVariableOp"
  op: "ReadVariableOp"
  input: "dense/kernel"
  attr {
    key: "dtype"
    value {
      type: DT_FLOAT
    }
  }
}
node {
  name: "dense/MatMul"
  op: "MatMul"
  input: "stream_6/flatten/Reshape"
  input: "dense/MatMul/ReadVariableOp"
  attr {
    key: "T"
    value {
      type: DT_FLOAT
    }
  }
  attr {
    key: "transpose_a"
    value {
      b: false
    }
  }
  attr {
    key: "transpose_b"
    value {
      b: false
    }
  }
}
node {
  name: "dense/BiasAdd/ReadVariableOp"
  op: "ReadVariableOp"
  input: "dense/bias"
  attr {
    key: "dtype"
    value {
      type: DT_FLOAT
    }
  }
}
node {
  name: "dense/BiasAdd"
  op: "BiasAdd"
  input: "dense/MatMul"
  input: "dense/BiasAdd/ReadVariableOp"
  attr {
    key: "T"
    value {
      type: DT_FLOAT
    }
  }
  attr {
    key: "data_format"
    value {
      s: "NHWC"
    }
  }
}
node {
  name: "dense/Relu"
  op: "Relu"
  input: "dense/BiasAdd"
  attr {
    key: "T"
    value {
      type: DT_FLOAT
    }
  }
}
node {
  name: "dense_1/kernel/Initializer/stateless_random_uniform/shape"
  op: "Const"
  attr {
    key: "_class"
    value {
      list {
        s: "loc:@dense_1/kernel"
      }
    }
  }
  attr {
    key: "dtype"
    value {
      type: DT_INT32
    }
  }
  attr {
    key: "value"
    value {
      tensor {
        dtype: DT_INT32
        tensor_shape {
          dim {
            size: 2
          }
        }
        tensor_content: "\n\000\000\000\002\000\000\000"
      }
    }
  }
}
node {
  name: "dense_1/kernel/Initializer/stateless_random_uniform/min"
…
      value: "OptionalFromValue:optional:0"
    }
    ret {
      key: "optionalfromvalue_1"
      value: "OptionalFromValue_1:optional:0"
    }
    ret {
      key: "optionalfromvalue_2"
      value: "OptionalFromValue_2:optional:0"
    }
    ret {
      key: "optionalfromvalue_3"
      value: "OptionalFromValue_3:optional:0"
    }
    ret {
      key: "optionalfromvalue_4"
      value: "OptionalFromValue_4:optional:0"
    }
    ret {
      key: "optionalfromvalue_5"
      value: "OptionalFromValue_5:optional:0"
    }
    ret {
      key: "optionalfromvalue_6"
      value: "OptionalFromValue_6:optional:0"
    }
    arg_attr {
      key: 4
      value {
        attr {
          key: "_output_shapes"
          value {
            list {
              shape {
                dim {
                  size: 11
                }
                dim {
                  size: 8
                }
                dim {
                  size: 1
                }
                dim {
                  size: 12
                }
              }
            }
          }
        }
      }
    }
  }
  function {
    signature {
      name: "batch_normalization_cond_1_false_112"
      output_arg {
        name: "const"
        type: DT_FLOAT
      }
    }
    node_def {
      name: "Const"
      op: "Const"
      attr {
        key: "dtype"
        value {
          type: DT_FLOAT
        }
      }
      attr {
        key: "value"
        value {
          tensor {
            dtype: DT_FLOAT
            tensor_shape {
            }
            float_val: 1.0
          }
        }
      }
    }
    ret {
      key: "const"
      value: "Const:output:0"
    }
  }
  function {
    signature {
      name: "batch_normalization_1_cond_true_172"
      input_arg {
        name: "readvariableop_batch_normalization_1_gamma"
        type: DT_RESOURCE
      }
      input_arg {
        name: "readvariableop_1_batch_normalization_1_beta"
        type: DT_RESOURCE
      }
      input_arg {
        name: "fusedbatchnormv3_readvariableop_batch_normalization_1_moving_mean"
        type: DT_RESOURCE
      }
      input_arg {
        name: "fusedbatchnormv3_readvariableop_1_batch_normalization_1_moving_variance"
        type: DT_RESOURCE
      }
      input_arg {
        name: "fusedbatchnormv3_stream_1_depthwise_conv2d_biasadd"
        type: DT_FLOAT
      }
      output_arg {
        name: "fusedbatchnormv3"
        type: DT_FLOAT
      }
      output_arg {
        name: "fusedbatchnormv3_0"
        type: DT_FLOAT
      }
      output_arg {
        name: "fusedbatchnormv3_1"
        type: DT_FLOAT
      }
      output_arg {
        name: "optionalfromvalue"
        type: DT_VARIANT
      }
      output_arg {
        name: "optionalfromvalue_1"
        type: DT_VARIANT
      }
      output_arg {
        name: "optionalfromvalue_2"
        type: DT_VARIANT
      }
      output_arg {
        name: "optionalfromvalue_3"
        type: DT_VARIANT
      }
      output_arg {
        name: "optionalfromvalue_4"
        type: DT_VARIANT
      }
      output_arg {
        name: "optionalfromvalue_5"
        type: DT_VARIANT
      }
      output_arg {
        name: "optionalfromvalue_6"
        type: DT_VARIANT
      }
      is_stateful: true
    }
    node_def {
      name: "ReadVariableOp"
      op: "ReadVariableOp"
      input: "readvariableop_batch_normalization_1_gamma"
      attr {
        key: "dtype"
        value {
          type: DT_FLOAT
        }
      }
    }
    node_def {
      name: "ReadVariableOp_1"
      op: "ReadVariableOp"
      input: "readvariableop_1_batch_normalization_1_beta"
      attr {
        key: "dtype"
        value {
          type: DT_FLOAT
        }
      }
    }
    node_def {
      name: "FusedBatchNormV3/ReadVariableOp"
      op: "ReadVariableOp"
      input: "fusedbatchnormv3_readvariableop_batch_normalization_1_moving_mean"
      attr {
        key: "dtype"
        value {
          type: DT_FLOAT
        }
      }
    }
    node_def {
      name: "FusedBatchNormV3/ReadVariableOp_1"
      op: "ReadVariableOp"
      input: "fusedbatchnormv3_readvariableop_1_batch_normalization_1_moving_variance"
      attr {
        key: "dtype"
        value {
          type: DT_FLOAT
        }
      }
    }
    node_def {
      name: "FusedBatchNormV3"
      op: "FusedBatchNormV3"
      input: "fusedbatchnormv3_stream_1_depthwise_conv2d_biasadd"
      input: "ReadVariableOp:value:0"
      input: "ReadVariableOp_1:value:0"
      input: "FusedBatchNormV3/ReadVariableOp:value:0"
      input: "FusedBatchNormV3/ReadVariableOp_1:value:0"
      attr {
        key: "T"
        value {
          type: DT_FLOAT
        }
      }
      attr {
        key: "U"
        value {
          type: DT_FLOAT
        }
      }
      attr {
        key: "data_format"
        value {
          s: "NHWC"
        }
      }
      attr {
        key: "epsilon"
        value {
          f: 9.999999747378752e-06
        }
      }
      attr {
        key: "exponential_avg_factor"
        value {
          f: 1.0
        }
      }
      attr {
        key: "is_training"
        value {
          b: true
        }
      }
    }
    node_def {
      name: "OptionalFromValue"
      op: "OptionalFromValue"
      input: "ReadVariableOp:value:0"
      attr {
        key: "Toutput_types"
        value {
          list {
            type: DT_FLOAT
          }
        }
      }
      experimental_type {
        type_id: TFT_PRODUCT
        args {
          type_id: TFT_OPTIONAL
          args {
            type_id: TFT_PRODUCT
            args {
              type_id: TFT_TENSOR
              args {
                type_id: TFT_FLOAT
              }
            }
          }
        }
      }
    }
    node_def {
      name: "OptionalFromValue_1"
      op: "OptionalFromValue"
      input: "ReadVariableOp_1:value:0"
      attr {
        key: "Toutput_types"
        value {
          list {
            type: DT_FLOAT
          }
        }
      }
      experimental_type {
        type_id: TFT_PRODUCT
        args {
          type_id: TFT_OPTIONAL
          args {
            type_id: TFT_PRODUCT
            args {
              type_id: TFT_TENSOR
              args {
                type_id: TFT_FLOAT
              }
            }
          }
        }
      }
    }
    node_def {
      name: "OptionalFromValue_2"
      op: "OptionalFromValue"
      input: "FusedBatchNormV3/ReadVariableOp:value:0"
      attr {
        key: "Toutput_types"
        value {
          list {
            type: DT_FLOAT
          }
        }
      }
      experimental_type {
        type_id: TFT_PRODUCT
        args {
          type_id: TFT_OPTIONAL
          args {
            type_id: TFT_PRODUCT
            args {
              type_id: TFT_TENSOR
              args {
                type_id: TFT_FLOAT
              }
            }
          }
        }
      }
    }
    node_def {
      name: "OptionalFromValue_3"
      op: "OptionalFromValue"
      input: "FusedBatchNormV3/ReadVariableOp_1:value:0"
      attr {
        key: "Toutput_types"
        value {
          list {
            type: DT_FLOAT
          }
        }
      }
      experimental_type {
        type_id: TFT_PRODUCT
        args {
          type_id: TFT_OPTIONAL
          args {
            type_id: TFT_PRODUCT
            args {
              type_id: TFT_TENSOR
              args {
                type_id: TFT_FLOAT
              }
            }
          }
        }
      }
    }
    node_def {
      name: "OptionalFromValue_4"
      op: "OptionalFromValue"
      input: "FusedBatchNormV3:reserve_space_1:0"
      attr {
        key: "Toutput_types"
        value {
          list {
            type: DT_FLOAT
          }
        }
      }
      experimental_type {
        type_id: TFT_PRODUCT
        args {
          type_id: TFT_OPTIONAL
          args {
            type_id: TFT_PRODUCT
            args {
              type_id: TFT_TENSOR
              args {
                type_id: TFT_FLOAT
              }
            }
          }
        }
      }
    }
    node_def {
      name: "OptionalFromValue_5"
      op: "OptionalFromValue"
      input: "FusedBatchNormV3:reserve_space_2:0"
      attr {
        key: "Toutput_types"
        value {
          list {
            type: DT_FLOAT
          }
        }
      }
      experimental_type {
        type_id: TFT_PRODUCT
        args {
          type_id: TFT_OPTIONAL
          args {
            type_id: TFT_PRODUCT
            args {
              type_id: TFT_TENSOR
              args {
                type_id: TFT_FLOAT
              }
            }
          }
        }
      }
    }
    node_def {
      name: "OptionalFromValue_6"
      op: "OptionalFromValue"
      input: "FusedBatchNormV3:reserve_space_3:0"
      attr {
        key: "Toutput_types"
        value {
          list {
            type: DT_FLOAT
          }
        }
      }
      experimental_type {
        type_id: TFT_PRODUCT
        args {
          type_id: TFT_OPTIONAL
          args {
            type_id: TFT_PRODUCT
            args {
              type_id: TFT_TENSOR
              args {
                type_id: TFT_FLOAT
              }
            }
          }
        }
      }
    }
    ret {
      key: "fusedbatchnormv3"
      value: "FusedBatchNormV3:y:0"
    }
    ret {
      key: "fusedbatchnormv3_0"
      value: "FusedBatchNormV3:batch_mean:0"
    }
    ret {
      key: "fusedbatchnormv3_1"
      value: "FusedBatchNormV3:batch_variance:0"
    }
    ret {
      key: "optionalfromvalue"
      value: "OptionalFromValue:optional:0"
    }
    ret {
      key: "optionalfromvalue_1"
      value: "OptionalFromValue_1:optional:0"
    }
    ret {
      key: "optionalfromvalue_2"
      value: "OptionalFromValue_2:optional:0"
    }
    ret {
      key: "optionalfromvalue_3"
      value: "OptionalFromValue_3:optional:0"
    }
    ret {
      key: "optionalfromvalue_4"
      value: "OptionalFromValue_4:optional:0"
    }
    ret {
      key: "optionalfromvalue_5"
      value: "OptionalFromValue_5:optional:0"
    }
    ret {
      key: "optionalfromvalue_6"
      value: "OptionalFromValue_6:optional:0"
    }
    arg_attr {
      key: 4
      value {
        attr {
          key: "_output_shapes"
          value {
            list {
              shape {
                dim {
                  size: 11
                }
                dim {
                  size: 60
                }
                dim {
                  size: 1
                }
                dim {
                  size: 3
                }
              }
            }
          }
        }
      }
    }
  }
  function {
    signature {
      name: "dropout_cond_false_650"
      input_arg {
        name: "identity_activation_4_relu"
        type: DT_FLOAT
      }
      output_arg {
        name: "identity"
        type: DT_FLOAT
      }
      output_arg {
        name: "optionalnone"
        type: DT_VARIANT
      }
      output_arg {
        name: "optionalnone_1"
        type: DT_VARIANT
      }
      output_arg {
        name: "optionalnone_2"
        type: DT_VARIANT
      }
      output_arg {
        name: "optionalnone_3"
        type: DT_VARIANT
      }
      output_arg {
        name: "optionalnone_4"
        type: DT_VARIANT
      }
      output_arg {
        name: "optionalnone_5"
        type: DT_VARIANT
      }
      output_arg {
        name: "optionalnone_6"
        type: DT_VARIANT
      }
    }
    node_def {
      name: "Identity"
      op: "Identity"
      input: "identity_activation_4_relu"
      attr {
        key: "T"
        value {
          type: DT_FLOAT
        }
      }
    }
    node_def {
      name: "OptionalNone"
      op: "OptionalNone"
    }
    node_def {
      name: "OptionalNone_1"
      op: "OptionalNone"
    }
    node_def {
      name: "OptionalNone_2"
      op: "OptionalNone"
    }
    node_def {
      name: "OptionalNone_3"
      op: "OptionalNone"
    }
    node_def {
      name: "OptionalNone_4"
      op: "OptionalNone"
    }
    node_def {
      name: "OptionalNone_5"
      op: "OptionalNone"
    }
    node_def {
      name: "OptionalNone_6"
      op: "OptionalNone"
    }
    ret {
      key: "identity"
      value: "Identity:output:0"
    }
    ret {
      key: "optionalnone"
      value: "OptionalNone:optional:0"
    }
    ret {
      key: "optionalnone_1"
      value: "OptionalNone_1:optional:0"
    }
    ret {
      key: "optionalnone_2"
      value: "OptionalNone_2:optional:0"
    }
    ret {
      key: "optionalnone_3"
      value: "OptionalNone_3:optional:0"
    }
    ret {
      key: "optionalnone_4"
      value: "OptionalNone_4:optional:0"
    }
    ret {
      key: "optionalnone_5"
      value: "OptionalNone_5:optional:0"
    }
    ret {
      key: "optionalnone_6"
      value: "OptionalNone_6:optional:0"
    }
    arg_attr {
      value {
        attr {
          key: "_output_shapes"
          value {
            list {
              shape {
                dim {
                  size: 11
                }
                dim {
                  size: 2
                }
                dim {
                  size: 1
                }
                dim {
                  size: 24
                }
              }
            }
          }
        }
      }
    }
  }
  function {
    signature {
      name: "dropout_cond_true_649"
      input_arg {
        name: "dropout_mul_activation_4_relu"
        type: DT_FLOAT
      }
      output_arg {
        name: "dropout_selectv2"
        type: DT_FLOAT
      }
      output_arg {
        name: "optionalfromvalue"
        type: DT_VARIANT
      }
      output_arg {
        name: "optionalfromvalue_1"
        type: DT_VARIANT
      }
      output_arg {
        name: "optionalfromvalue_2"
        type: DT_VARIANT
      }
      output_arg {
        name: "optionalfromvalue_3"
        type: DT_VARIANT
      }
      output_arg {
        name: "optionalfromvalue_4"
        type: DT_VARIANT
      }
      output_arg {
        name: "optionalfromvalue_5"
        type: DT_VARIANT
      }
      output_arg {
        name: "optionalfromvalue_6"
        type: DT_VARIANT
      }
      is_stateful: true
    }
    node_def {
      name: "dropout/Const"
      op: "Const"
      attr {
        key: "dtype"
        value {
          type: DT_FLOAT
        }
      }
      attr {
        key: "value"
        value {
          tensor {
            dtype: DT_FLOAT
            tensor_shape {
            }
            float_val: 2.0
          }
        }
      }
    }
    node_def {
      name: "dropout/Mul"
      op: "Mul"
      input: "dropout_mul_activation_4_relu"
      input: "dropout/Const:output:0"
      attr {
        key: "T"
        value {
          type: DT_FLOAT
        }
      }
    }
    node_def {
      name: "dropout/Shape"
      op: "Const"
      attr {
        key: "dtype"
        value {
          type: DT_INT32
        }
      }
      attr {
        key: "value"
        value {
          tensor {
            dtype: DT_INT32
            tensor_shape {
              dim {
                size: 4
              }
            }
            tensor_content: "\013\000\000\000\002\000\000\000\001\000\000\000\030\000\000\000"
          }
        }
      }
    }
    node_def {
      name: "dropout/random_uniform/RandomUniform"
      op: "RandomUniform"
      input: "dropout/Shape:output:0"
      attr {
        key: "T"
        value {
          type: DT_INT32
        }
      }
      attr {
        key: "dtype"
        value {
          type: DT_FLOAT
        }
      }
      attr {
        key: "seed"
        value {
          i: 0
        }
      }
      attr {
        key: "seed2"
        value {
          i: 0
        }
      }
    }
    node_def {
      name: "dropout/GreaterEqual/y"
      op: "Const"
      attr {
        key: "dtype"
        value {
          type: DT_FLOAT
        }
      }
      attr {
        key: "value"
        value {
          tensor {
            dtype: DT_FLOAT
            tensor_shape {
            }
            float_val: 0.5
          }
        }
      }
    }
    node_def {
      name: "dropout/GreaterEqual"
      op: "GreaterEqual"
      input: "dropout/random_uniform/RandomUniform:output:0"
      input: "dropout/GreaterEqual/y:output:0"
      attr {
        key: "T"
        value {
          type: DT_FLOAT
        }
      }
    }
    node_def {
      name: "dropout/Const_1"
      op: "Const"
      attr {
        key: "dtype"
        value {
          type: DT_FLOAT
        }
      }
      attr {
        key: "value"
        value {
          tensor {
            dtype: DT_FLOAT
            tensor_shape {
            }
            float_val: 0.0
          }
        }
      }
    }
    node_def {
      name: "dropout/SelectV2"
      op: "SelectV2"
      input: "dropout/GreaterEqual:z:0"
      input: "dropout/Mul:z:0"
      input: "dropout/Const_1:output:0"
      attr {
        key: "T"
        value {
          type: DT_FLOAT
        }
      }
    }
    node_def {
      name: "OptionalFromValue"
      op: "OptionalFromValue"
      input: "dropout/Const:output:0"
      attr {
        key: "Toutput_types"
        value {
          list {
            type: DT_FLOAT
          }
        }
      }
      experimental_type {
        type_id: TFT_PRODUCT
        args {
          type_id: TFT_OPTIONAL
          args {
            type_id: TFT_PRODUCT
            args {
              type_id: TFT_TENSOR
              args {
                type_id: TFT_FLOAT
              }
            }
          }
        }
      }
    }
    node_def {
      name: "OptionalFromValue_1"
      op: "OptionalFromValue"
      input: "dropout/Mul:z:0"
      attr {
        key: "Toutput_types"
        value {
          list {
            type: DT_FLOAT
          }
        }
      }
      experimental_type {
        type_id: TFT_PRODUCT
        args {
          type_id: TFT_OPTIONAL
          args {
            type_id: TFT_PRODUCT
            args {
              type_id: TFT_TENSOR
              args {
                type_id: TFT_FLOAT
              }
            }
          }
        }
      }
    }
    node_def {
      name: "OptionalFromValue_2"
      op: "OptionalFromValue"
      input: "dropout/Shape:output:0"
      attr {
        key: "Toutput_types"
        value {
          list {
            type: DT_INT32
          }
        }
      }
      experimental_type {
        type_id: TFT_PRODUCT
        args {
          type_id: TFT_OPTIONAL
          args {
            type_id: TFT_PRODUCT
            args {
              type_id: TFT_TENSOR
              args {
                type_id: TFT_INT32
              }
            }
          }
        }
      }
    }
    node_def {
      name: "OptionalFromValue_3"
      op: "OptionalFromValue"
      input: "dropout/random_uniform/RandomUniform:output:0"
      attr {
        key: "Toutput_types"
        value {
          list {
            type: DT_FLOAT
          }
        }
      }
      experimental_type {
        type_id: TFT_PRODUCT
        args {
          type_id: TFT_OPTIONAL
          args {
            type_id: TFT_PRODUCT
            args {
              type_id: TFT_TENSOR
              args {
                type_id: TFT_FLOAT
              }
            }
          }
        }
      }
    }
    node_def {
      name: "OptionalFromValue_4"
      op: "OptionalFromValue"
      input: "dropout/GreaterEqual/y:output:0"
      attr {
        key: "Toutput_types"
        value {
          list {
            type: DT_FLOAT
          }
        }
      }
      experimental_type {
        type_id: TFT_PRODUCT
        args {
          type_id: TFT_OPTIONAL
          args {
            type_id: TFT_PRODUCT
            args {
              type_id: TFT_TENSOR
              args {
                type_id: TFT_FLOAT
              }
            }
          }
        }
      }
    }
    node_def {
      name: "OptionalFromValue_5"
      op: "OptionalFromValue"
      input: "dropout/GreaterEqual:z:0"
      attr {
        key: "Toutput_types"
        value {
          list {
            type: DT_BOOL
          }
        }
      }
      experimental_type {
        type_id: TFT_PRODUCT
        args {
          type_id: TFT_OPTIONAL
          args {
            type_id: TFT_PRODUCT
            args {
              type_id: TFT_TENSOR
              args {
                type_id: TFT_BOOL
              }
            }
          }
        }
      }
    }
    node_def {
      name: "OptionalFromValue_6"
      op: "OptionalFromValue"
      input: "dropout/Const_1:output:0"
      attr {
        key: "Toutput_types"
        value {
          list {
            type: DT_FLOAT
          }
        }
      }
      experimental_type {
        type_id: TFT_PRODUCT
        args {
          type_id: TFT_OPTIONAL
          args {
            type_id: TFT_PRODUCT
            args {
              type_id: TFT_TENSOR
              args {
                type_id: TFT_FLOAT
              }
            }
          }
        }
      }
    }
    ret {
      key: "dropout_selectv2"
      value: "dropout/SelectV2:output:0"
    }
    ret {
      key: "optionalfromvalue"
      value: "OptionalFromValue:optional:0"
    }
    ret {
      key: "optionalfromvalue_1"
      value: "OptionalFromValue_1:optional:0"
    }
    ret {
      key: "optionalfromvalue_2"
      value: "OptionalFromValue_2:optional:0"
    }
    ret {
      key: "optionalfromvalue_3"
      value: "OptionalFromValue_3:optional:0"
    }
    ret {
      key: "optionalfromvalue_4"
      value: "OptionalFromValue_4:optional:0"
    }
    ret {
      key: "optionalfromvalue_5"
      value: "OptionalFromValue_5:optional:0"
    }
    ret {
      key: "optionalfromvalue_6"
      value: "OptionalFromValue_6:optional:0"
    }
    arg_attr {
      value {
        attr {
          key: "_output_shapes"
          value {
            list {
              shape {
                dim {
                  size: 11
                }
                dim {
                  size: 2
                }
                dim {
                  size: 1
                }
                dim {
                  size: 24
                }
              }
            }
          }
        }
      }
    }
  }
  function {
    signature {
      name: "batch_normalization_cond_true_43"
      input_arg {
        name: "readvariableop_batch_normalization_gamma"
        type: DT_RESOURCE
      }
      input_arg {
        name: "readvariableop_1_batch_normalization_beta"
        type: DT_RESOURCE
      }
      input_arg {
        name: "fusedbatchnormv3_readvariableop_batch_normalization_moving_mean"
        type: DT_RESOURCE
      }
      input_arg {
        name: "fusedbatchnormv3_readvariableop_1_batch_normalization_moving_variance"
        type: DT_RESOURCE
      }
      input_arg {
        name: "fusedbatchnormv3_stream_conv2d_biasadd"
        type: DT_FLOAT
      }
      output_arg {
        name: "fusedbatchnormv3"
        type: DT_FLOAT
      }
      output_arg {
        name: "fusedbatchnormv3_0"
        type: DT_FLOAT
      }
      output_arg {
        name: "fusedbatchnormv3_1"
        type: DT_FLOAT
      }
      output_arg {
        name: "optionalfromvalue"
        type: DT_VARIANT
      }
      output_arg {
        name: "optionalfromvalue_1"
        type: DT_VARIANT
      }
      output_arg {
        name: "optionalfromvalue_2"
        type: DT_VARIANT
      }
      output_arg {
        name: "optionalfromvalue_3"
        type: DT_VARIANT
      }
      output_arg {
        name: "optionalfromvalue_4"
        type: DT_VARIANT
      }
      output_arg {
        name: "optionalfromvalue_5"
        type: DT_VARIANT
      }
      output_arg {
        name: "optionalfromvalue_6"
        type: DT_VARIANT
      }
      is_stateful: true
    }
    node_def {
      name: "ReadVariableOp"
      op: "ReadVariableOp"
      input: "readvariableop_batch_normalization_gamma"
      attr {
        key: "dtype"
        value {
          type: DT_FLOAT
        }
      }
    }
    node_def {
      name: "ReadVariableOp_1"
      op: "ReadVariableOp"
      input: "readvariableop_1_batch_normalization_beta"
      attr {
        key: "dtype"
        value {
          type: DT_FLOAT
        }
      }
    }
    node_def {
      name: "FusedBatchNormV3/ReadVariableOp"
      op: "ReadVariableOp"
      input: "fusedbatchnormv3_readvariableop_batch_normalization_moving_mean"
      attr {
        key: "dtype"
        value {
          type: DT_FLOAT
        }
      }
    }
    node_def {
      name: "FusedBatchNormV3/ReadVariableOp_1"
      op: "ReadVariableOp"
      input: "fusedbatchnormv3_readvariableop_1_batch_normalization_moving_variance"
      attr {
        key: "dtype"
        value {
          type: DT_FLOAT
        }
      }
    }
    node_def {
      name: "FusedBatchNormV3"
      op: "FusedBatchNormV3"
      input: "fusedbatchnormv3_stream_conv2d_biasadd"
      input: "ReadVariableOp:value:0"
      input: "ReadVariableOp_1:value:0"
      input: "FusedBatchNormV3/ReadVariableOp:value:0"
      input: "FusedBatchNormV3/ReadVariableOp_1:value:0"
      attr {
        key: "T"
        value {
          type: DT_FLOAT
        }
      }
      attr {
        key: "U"
        value {
          type: DT_FLOAT
        }
      }
      attr {
        key: "data_format"
        value {
          s: "NHWC"
        }
      }
      attr {
        key: "epsilon"
        value {
          f: 9.999999747378752e-06
        }
      }
      attr {
        key: "exponential_avg_factor"
        value {
          f: 1.0
        }
      }
      attr {
        key: "is_training"
        value {
          b: true
        }
      }
    }
    node_def {
      name: "OptionalFromValue"
      op: "OptionalFromValue"
      input: "ReadVariableOp:value:0"
      attr {
        key: "Toutput_types"
        value {
          list {
            type: DT_FLOAT
          }
        }
      }
      experimental_type {
        type_id: TFT_PRODUCT
        args {
          type_id: TFT_OPTIONAL
          args {
            type_id: TFT_PRODUCT
            args {
              type_id: TFT_TENSOR
              args {
                type_id: TFT_FLOAT
              }
            }
          }
        }
      }
    }
    node_def {
      name: "OptionalFromValue_1"
      op: "OptionalFromValue"
      input: "ReadVariableOp_1:value:0"
      attr {
        key: "Toutput_types"
        value {
          list {
            type: DT_FLOAT
          }
        }
      }
      experimental_type {
        type_id: TFT_PRODUCT
        args {
          type_id: TFT_OPTIONAL
          args {
            type_id: TFT_PRODUCT
            args {
              type_id: TFT_TENSOR
              args {
                type_id: TFT_FLOAT
              }
            }
          }
        }
      }
    }
    node_def {
      name: "OptionalFromValue_2"
      op: "OptionalFromValue"
      input: "FusedBatchNormV3/ReadVariableOp:value:0"
      attr {
        key: "Toutput_types"
        value {
          list {
            type: DT_FLOAT
          }
        }
      }
      experimental_type {
        type_id: TFT_PRODUCT
        args {
          type_id: TFT_OPTIONAL
          args {
            type_id: TFT_PRODUCT
            args {
              type_id: TFT_TENSOR
              args {
                type_id: TFT_FLOAT
              }
            }
          }
        }
      }
    }
    node_def {
      name: "OptionalFromValue_3"
      op: "OptionalFromValue"
      input: "FusedBatchNormV3/ReadVariableOp_1:value:0"
      attr {
        key: "Toutput_types"
        value {
          list {
            type: DT_FLOAT
          }
        }
      }
      experimental_type {
        type_id: TFT_PRODUCT
        args {
          type_id: TFT_OPTIONAL
          args {
            type_id: TFT_PRODUCT
            args {
              type_id: TFT_TENSOR
              args {
                type_id: TFT_FLOAT
              }
            }
          }
        }
      }
    }
    node_def {
      name: "OptionalFromValue_4"
      op: "OptionalFromValue"
      input: "FusedBatchNormV3:reserve_space_1:0"
      attr {
        key: "Toutput_types"
        value {
          list {
            type: DT_FLOAT
          }
        }
      }
      experimental_type {
        type_id: TFT_PRODUCT
        args {
          type_id: TFT_OPTIONAL
          args {
            type_id: TFT_PRODUCT
            args {
              type_id: TFT_TENSOR
              args {
                type_id: TFT_FLOAT
              }
            }
          }
        }
      }
    }
    node_def {
      name: "OptionalFromValue_5"
      op: "OptionalFromValue"
      input: "FusedBatchNormV3:reserve_space_2:0"
      attr {
        key: "Toutput_types"
        value {
          list {
            type: DT_FLOAT
          }
        }
      }
      experimental_type {
        type_id: TFT_PRODUCT
        args {
          type_id: TFT_OPTIONAL
          args {
            type_id: TFT_PRODUCT
            args {
              type_id: TFT_TENSOR
              args {
                type_id: TFT_FLOAT
              }
            }
          }
        }
      }
    }
    node_def {
      name: "OptionalFromValue_6"
      op: "OptionalFromValue"
      input: "FusedBatchNormV3:reserve_space_3:0"
      attr {
        key: "Toutput_types"
        value {
          list {
            type: DT_FLOAT
          }
        }
      }
      experimental_type {
        type_id: TFT_PRODUCT
        args {
          type_id: TFT_OPTIONAL
          args {
            type_id: TFT_PRODUCT
            args {
              type_id: TFT_TENSOR
              args {
                type_id: TFT_FLOAT
              }
            }
          }
        }
      }
    }
    ret {
      key: "fusedbatchnormv3"
      value: "FusedBatchNormV3:y:0"
    }
    ret {
      key: "fusedbatchnormv3_0"
      value: "FusedBatchNormV3:batch_mean:0"
    }
    ret {
      key: "fusedbatchnormv3_1"
      value: "FusedBatchNormV3:batch_variance:0"
    }
    ret {
      key: "optionalfromvalue"
      value: "OptionalFromValue:optional:0"
    }
    ret {
      key: "optionalfromvalue_1"
      value: "OptionalFromValue_1:optional:0"
    }
    ret {
      key: "optionalfromvalue_2"
      value: "OptionalFromValue_2:optional:0"
    }
    ret {
      key: "optionalfromvalue_3"
      value: "OptionalFromValue_3:optional:0"
    }
    ret {
      key: "optionalfromvalue_4"
      value: "OptionalFromValue_4:optional:0"
    }
    ret {
      key: "optionalfromvalue_5"
      value: "OptionalFromValue_5:optional:0"
    }
    ret {
      key: "optionalfromvalue_6"
      value: "OptionalFromValue_6:optional:0"
    }
    arg_attr {
      key: 4
      value {
        attr {
          key: "_output_shapes"
          value {
            list {
              shape {
                dim {
                  size: 11
                }
                dim {
                  size: 123
                }
                dim {
                  size: 1
                }
                dim {
                  size: 3
                }
              }
            }
          }
        }
      }
    }
  }
  function {
    signature {
      name: "batch_normalization_2_cond_1_false_370"
      output_arg {
        name: "const"
        type: DT_FLOAT
      }
    }
    node_def {
      name: "Const"
      op: "Const"
      attr {
        key: "dtype"
        value {
          type: DT_FLOAT
        }
      }
      attr {
        key: "value"
        value {
          tensor {
            dtype: DT_FLOAT
            tensor_shape {
            }
            float_val: 1.0
          }
        }
      }
    }
    ret {
      key: "const"
      value: "Const:output:0"
    }
  }
  function {
    signature {
      name: "batch_normalization_2_cond_true_301"
      input_arg {
        name: "readvariableop_batch_normalization_2_gamma"
        type: DT_RESOURCE
      }
      input_arg {
        name: "readvariableop_1_batch_normalization_2_beta"
        type: DT_RESOURCE
      }
      input_arg {
        name: "fusedbatchnormv3_readvariableop_batch_normalization_2_moving_mean"
        type: DT_RESOURCE
      }
      input_arg {
        name: "fusedbatchnormv3_readvariableop_1_batch_normalization_2_moving_variance"
        type: DT_RESOURCE
      }
      input_arg {
        name: "fusedbatchnormv3_stream_2_depthwise_conv2d_1_biasadd"
        type: DT_FLOAT
      }
      output_arg {
        name: "fusedbatchnormv3"
        type: DT_FLOAT
      }
      output_arg {
        name: "fusedbatchnormv3_0"
        type: DT_FLOAT
      }
      output_arg {
        name: "fusedbatchnormv3_1"
        type: DT_FLOAT
      }
      output_arg {
        name: "optionalfromvalue"
        type: DT_VARIANT
      }
      output_arg {
        name: "optionalfromvalue_1"
        type: DT_VARIANT
      }
      output_arg {
        name: "optionalfromvalue_2"
        type: DT_VARIANT
      }
      output_arg {
        name: "optionalfromvalue_3"
        type: DT_VARIANT
      }
      output_arg {
        name: "optionalfromvalue_4"
        type: DT_VARIANT
      }
      output_arg {
        name: "optionalfromvalue_5"
        type: DT_VARIANT
      }
      output_arg {
        name: "optionalfromvalue_6"
        type: DT_VARIANT
      }
      is_stateful: true
    }
    node_def {
      name: "ReadVariableOp"
      op: "ReadVariableOp"
      input: "readvariableop_batch_normalization_2_gamma"
      attr {
        key: "dtype"
        value {
          type: DT_FLOAT
        }
      }
    }
    node_def {
      name: "ReadVariableOp_1"
      op: "ReadVariableOp"
      input: "readvariableop_1_batch_normalization_2_beta"
      attr {
        key: "dtype"
        value {
          type: DT_FLOAT
        }
      }
    }
    node_def {
      name: "FusedBatchNormV3/ReadVariableOp"
      op: "ReadVariableOp"
      input: "fusedbatchnormv3_readvariableop_batch_normalization_2_moving_mean"
      attr {
        key: "dtype"
        value {
          type: DT_FLOAT
        }
      }
    }
    node_def {
      name: "FusedBatchNormV3/ReadVariableOp_1"
      op: "ReadVariableOp"
      input: "fusedbatchnormv3_readvariableop_1_batch_normalization_2_moving_variance"
      attr {
        key: "dtype"
        value {
          type: DT_FLOAT
        }
      }
    }
    node_def {
      name: "FusedBatchNormV3"
      op: "FusedBatchNormV3"
      input: "fusedbatchnormv3_stream_2_depthwise_conv2d_1_biasadd"
      input: "ReadVariableOp:value:0"
      input: "ReadVariableOp_1:value:0"
      input: "FusedBatchNormV3/ReadVariableOp:value:0"
      input: "FusedBatchNormV3/ReadVariableOp_1:value:0"
      attr {
        key: "T"
        value {
          type: DT_FLOAT
        }
      }
      attr {
        key: "U"
        value {
          type: DT_FLOAT
        }
      }
      attr {
        key: "data_format"
        value {
          s: "NHWC"
        }
      }
      attr {
        key: "epsilon"
        value {
          f: 9.999999747378752e-06
        }
      }
      attr {
        key: "exponential_avg_factor"
        value {
          f: 1.0
        }
      }
      attr {
        key: "is_training"
        value {
          b: true
        }
      }
    }
    node_def {
      name: "OptionalFromValue"
      op: "OptionalFromValue"
      input: "ReadVariableOp:value:0"
      attr {
        key: "Toutput_types"
        value {
          list {
            type: DT_FLOAT
          }
        }
      }
      experimental_type {
        type_id: TFT_PRODUCT
        args {
          type_id: TFT_OPTIONAL
          args {
            type_id: TFT_PRODUCT
            args {
              type_id: TFT_TENSOR
              args {
                type_id: TFT_FLOAT
              }
            }
          }
        }
      }
    }
    node_def {
      name: "OptionalFromValue_1"
      op: "OptionalFromValue"
      input: "ReadVariableOp_1:value:0"
      attr {
        key: "Toutput_types"
        value {
          list {
            type: DT_FLOAT
          }
        }
      }
      experimental_type {
        type_id: TFT_PRODUCT
        args {
          type_id: TFT_OPTIONAL
          args {
            type_id: TFT_PRODUCT
            args {
              type_id: TFT_TENSOR
              args {
                type_id: TFT_FLOAT
              }
            }
          }
        }
      }
    }
    node_def {
      name: "OptionalFromValue_2"
      op: "OptionalFromValue"
      input: "FusedBatchNormV3/ReadVariableOp:value:0"
      attr {
        key: "Toutput_types"
        value {
          list {
            type: DT_FLOAT
          }
        }
      }
      experimental_type {
        type_id: TFT_PRODUCT
        args {
          type_id: TFT_OPTIONAL
          args {
            type_id: TFT_PRODUCT
            args {
              type_id: TFT_TENSOR
              args {
                type_id: TFT_FLOAT
              }
            }
          }
        }
      }
    }
    node_def {
      name: "OptionalFromValue_3"
      op: "OptionalFromValue"
      input: "FusedBatchNormV3/ReadVariableOp_1:value:0"
      attr {
        key: "Toutput_types"
        value {
          list {
            type: DT_FLOAT
          }
        }
      }
      experimental_type {
        type_id: TFT_PRODUCT
        args {
          type_id: TFT_OPTIONAL
          args {
            type_id: TFT_PRODUCT
            args {
              type_id: TFT_TENSOR
              args {
                type_id: TFT_FLOAT
              }
            }
          }
        }
      }
    }
    node_def {
      name: "OptionalFromValue_4"
      op: "OptionalFromValue"
      input: "FusedBatchNormV3:reserve_space_1:0"
      attr {
        key: "Toutput_types"
        value {
          list {
            type: DT_FLOAT
          }
        }
      }
      experimental_type {
        type_id: TFT_PRODUCT
        args {
          type_id: TFT_OPTIONAL
          args {
            type_id: TFT_PRODUCT
            args {
              type_id: TFT_TENSOR
              args {
                type_id: TFT_FLOAT
              }
            }
          }
        }
      }
    }
    node_def {
      name: "OptionalFromValue_5"
      op: "OptionalFromValue"
      input: "FusedBatchNormV3:reserve_space_2:0"
      attr {
        key: "Toutput_types"
        value {
          list {
            type: DT_FLOAT
          }
        }
      }
      experimental_type {
        type_id: TFT_PRODUCT
        args {
          type_id: TFT_OPTIONAL
          args {
            type_id: TFT_PRODUCT
            args {
              type_id: TFT_TENSOR
              args {
                type_id: TFT_FLOAT
              }
            }
          }
        }
      }
    }
    node_def {
      name: "OptionalFromValue_6"
      op: "OptionalFromValue"
      input: "FusedBatchNormV3:reserve_space_3:0"
      attr {
        key: "Toutput_types"
        value {
          list {
            type: DT_FLOAT
          }
        }
      }
      experimental_type {
        type_id: TFT_PRODUCT
        args {
          type_id: TFT_OPTIONAL
          args {
            type_id: TFT_PRODUCT
            args {
              type_id: TFT_TENSOR
              args {
                type_id: TFT_FLOAT
              }
            }
          }
        }
      }
    }
    ret {
      key: "fusedbatchnormv3"
      value: "FusedBatchNormV3:y:0"
    }
    ret {
      key: "fusedbatchnormv3_0"
      value: "FusedBatchNormV3:batch_mean:0"
    }
    ret {
      key: "fusedbatchnormv3_1"
      value: "FusedBatchNormV3:batch_variance:0"
    }
    ret {
      key: "optionalfromvalue"
      value: "OptionalFromValue:optional:0"
    }
    ret {
      key: "optionalfromvalue_1"
      value: "OptionalFromValue_1:optional:0"
    }
    ret {
      key: "optionalfromvalue_2"
      value: "OptionalFromValue_2:optional:0"
    }
    ret {
      key: "optionalfromvalue_3"
      value: "OptionalFromValue_3:optional:0"
    }
    ret {
      key: "optionalfromvalue_4"
      value: "OptionalFromValue_4:optional:0"
    }
    ret {
      key: "optionalfromvalue_5"
      value: "OptionalFromValue_5:optional:0"
    }
    ret {
      key: "optionalfromvalue_6"
      value: "OptionalFromValue_6:optional:0"
    }
    arg_attr {
      key: 4
      value {
        attr {
          key: "_output_shapes"
          value {
            list {
              shape {
                dim {
                  size: 11
                }
                dim {
                  size: 57
                }
                dim {
                  size: 1
                }
                dim {
                  size: 6
                }
              }
            }
          }
        }
      }
    }
  }
  function {
    signature {
      name: "batch_normalization_1_cond_false_173"
      input_arg {
        name: "readvariableop_batch_normalization_1_gamma"
        type: DT_RESOURCE
      }
      input_arg {
        name: "readvariableop_1_batch_normalization_1_beta"
        type: DT_RESOURCE
      }
      input_arg {
        name: "fusedbatchnormv3_readvariableop_batch_normalization_1_moving_mean"
        type: DT_RESOURCE
      }
      input_arg {
        name: "fusedbatchnormv3_readvariableop_1_batch_normalization_1_moving_variance"
        type: DT_RESOURCE
      }
      input_arg {
        name: "fusedbatchnormv3_stream_1_depthwise_conv2d_biasadd"
        type: DT_FLOAT
      }
      output_arg {
        name: "fusedbatchnormv3"
        type: DT_FLOAT
      }
      output_arg {
        name: "fusedbatchnormv3_0"
        type: DT_FLOAT
      }
      output_arg {
        name: "fusedbatchnormv3_1"
        type: DT_FLOAT
      }
      output_arg {
        name: "optionalfromvalue"
        type: DT_VARIANT
      }
      output_arg {
        name: "optionalfromvalue_1"
        type: DT_VARIANT
      }
      output_arg {
        name: "optionalfromvalue_2"
        type: DT_VARIANT
      }
      output_arg {
        name: "optionalfromvalue_3"
        type: DT_VARIANT
      }
      output_arg {
        name: "optionalfromvalue_4"
        type: DT_VARIANT
      }
      output_arg {
        name: "optionalfromvalue_5"
        type: DT_VARIANT
      }
      output_arg {
        name: "optionalfromvalue_6"
        type: DT_VARIANT
      }
      is_stateful: true
    }
    node_def {
      name: "ReadVariableOp"
      op: "ReadVariableOp"
      input: "readvariableop_batch_normalization_1_gamma"
      attr {
        key: "dtype"
        value {
          type: DT_FLOAT
        }
      }
    }
    node_def {
      name: "ReadVariableOp_1"
      op: "ReadVariableOp"
      input: "readvariableop_1_batch_normalization_1_beta"
      attr {
        key: "dtype"
        value {
          type: DT_FLOAT
        }
      }
    }
    node_def {
      name: "FusedBatchNormV3/ReadVariableOp"
      op: "ReadVariableOp"
      input: "fusedbatchnormv3_readvariableop_batch_normalization_1_moving_mean"
      attr {
        key: "dtype"
        value {
          type: DT_FLOAT
        }
      }
    }
    node_def {
      name: "FusedBatchNormV3/ReadVariableOp_1"
      op: "ReadVariableOp"
      input: "fusedbatchnormv3_readvariableop_1_batch_normalization_1_moving_variance"
      attr {
        key: "dtype"
        value {
          type: DT_FLOAT
        }
      }
    }
    node_def {
      name: "FusedBatchNormV3"
      op: "FusedBatchNormV3"
      input: "fusedbatchnormv3_stream_1_depthwise_conv2d_biasadd"
      input: "ReadVariableOp:value:0"
      input: "ReadVariableOp_1:value:0"
      input: "FusedBatchNormV3/ReadVariableOp:value:0"
      input: "FusedBatchNormV3/ReadVariableOp_1:value:0"
      attr {
        key: "T"
        value {
          type: DT_FLOAT
        }
      }
      attr {
        key: "U"
        value {
          type: DT_FLOAT
        }
      }
      attr {
        key: "data_format"
        value {
          s: "NHWC"
        }
      }
      attr {
        key: "epsilon"
        value {
          f: 9.999999747378752e-06
        }
      }
      attr {
        key: "exponential_avg_factor"
        value {
          f: 1.0
        }
      }
      attr {
        key: "is_training"
        value {
          b: false
        }
      }
    }
    node_def {
      name: "OptionalFromValue"
      op: "OptionalFromValue"
      input: "ReadVariableOp:value:0"
      attr {
        key: "Toutput_types"
        value {
          list {
            type: DT_FLOAT
          }
        }
      }
      experimental_type {
        type_id: TFT_PRODUCT
        args {
          type_id: TFT_OPTIONAL
          args {
            type_id: TFT_PRODUCT
            args {
              type_id: TFT_TENSOR
              args {
                type_id: TFT_FLOAT
              }
            }
          }
        }
      }
    }
    node_def {
      name: "OptionalFromValue_1"
      op: "OptionalFromValue"
      input: "ReadVariableOp_1:value:0"
      attr {
        key: "Toutput_types"
        value {
          list {
            type: DT_FLOAT
          }
        }
      }
      experimental_type {
        type_id: TFT_PRODUCT
        args {
          type_id: TFT_OPTIONAL
          args {
            type_id: TFT_PRODUCT
            args {
              type_id: TFT_TENSOR
              args {
                type_id: TFT_FLOAT
              }
            }
          }
        }
      }
    }
    node_def {
      name: "OptionalFromValue_2"
      op: "OptionalFromValue"
      input: "FusedBatchNormV3/ReadVariableOp:value:0"
      attr {
        key: "Toutput_types"
        value {
          list {
            type: DT_FLOAT
          }
        }
      }
      experimental_type {
        type_id: TFT_PRODUCT
        args {
          type_id: TFT_OPTIONAL
          args {
            type_id: TFT_PRODUCT
            args {
              type_id: TFT_TENSOR
              args {
                type_id: TFT_FLOAT
              }
            }
          }
        }
      }
    }
    node_def {
      name: "OptionalFromValue_3"
      op: "OptionalFromValue"
      input: "FusedBatchNormV3/ReadVariableOp_1:value:0"
      attr {
        key: "Toutput_types"
        value {
          list {
            type: DT_FLOAT
          }
        }
      }
      experimental_type {
        type_id: TFT_PRODUCT
        args {
          type_id: TFT_OPTIONAL
          args {
            type_id: TFT_PRODUCT
            args {
              type_id: TFT_TENSOR
              args {
                type_id: TFT_FLOAT
              }
            }
          }
        }
      }
    }
    node_def {
      name: "OptionalFromValue_4"
      op: "OptionalFromValue"
      input: "FusedBatchNormV3:reserve_space_1:0"
      attr {
        key: "Toutput_types"
        value {
          list {
            type: DT_FLOAT
          }
        }
      }
      experimental_type {
        type_id: TFT_PRODUCT
        args {
          type_id: TFT_OPTIONAL
          args {
            type_id: TFT_PRODUCT
            args {
              type_id: TFT_TENSOR
              args {
                type_id: TFT_FLOAT
              }
            }
          }
        }
      }
    }
    node_def {
      name: "OptionalFromValue_5"
      op: "OptionalFromValue"
      input: "FusedBatchNormV3:reserve_space_2:0"
      attr {
        key: "Toutput_types"
        value {
          list {
            type: DT_FLOAT
          }
        }
      }
      experimental_type {
        type_id: TFT_PRODUCT
        args {
          type_id: TFT_OPTIONAL
          args {
            type_id: TFT_PRODUCT
            args {
              type_id: TFT_TENSOR
              args {
                type_id: TFT_FLOAT
              }
            }
          }
        }
      }
    }
    node_def {
      name: "OptionalFromValue_6"
      op: "OptionalFromValue"
      input: "FusedBatchNormV3:reserve_space_3:0"
      attr {
        key: "Toutput_types"
        value {
          list {
            type: DT_FLOAT
          }
        }
      }
      experimental_type {
        type_id: TFT_PRODUCT
        args {
          type_id: TFT_OPTIONAL
          args {
            type_id: TFT_PRODUCT
            args {
              type_id: TFT_TENSOR
              args {
                type_id: TFT_FLOAT
              }
            }
          }
        }
      }
    }
    ret {
      key: "fusedbatchnormv3"
      value: "FusedBatchNormV3:y:0"
    }
    ret {
      key: "fusedbatchnormv3_0"
      value: "FusedBatchNormV3:batch_mean:0"
    }
    ret {
      key: "fusedbatchnormv3_1"
      value: "FusedBatchNormV3:batch_variance:0"
    }
    ret {
      key: "optionalfromvalue"
      value: "OptionalFromValue:optional:0"
    }
    ret {
      key: "optionalfromvalue_1"
      value: "OptionalFromValue_1:optional:0"
    }
    ret {
      key: "optionalfromvalue_2"
      value: "OptionalFromValue_2:optional:0"
    }
    ret {
      key: "optionalfromvalue_3"
      value: "OptionalFromValue_3:optional:0"
    }
    ret {
      key: "optionalfromvalue_4"
      value: "OptionalFromValue_4:optional:0"
    }
    ret {
      key: "optionalfromvalue_5"
      value: "OptionalFromValue_5:optional:0"
    }
    ret {
      key: "optionalfromvalue_6"
      value: "OptionalFromValue_6:optional:0"
    }
    arg_attr {
      key: 4
      value {
        attr {
          key: "_output_shapes"
          value {
            list {
              shape {
                dim {
                  size: 11
                }
                dim {
                  size: 60
                }
                dim {
                  size: 1
                }
                dim {
                  size: 3
                }
              }
            }
          }
        }
      }
    }
  }
}
versions {
  producer: 1395
  min_consumer: 12
}
